qauv_ws/src/qauv_track_pkg/qauv_track_pkg/bc_policy/bc0814_500.pt (torch, 22114 bytes, 14 tensors)

log_std f4 [2]
000000 46 0a 8d c0 8f 6f 9a c0
       -4.407504 -4.826118

weight f4 [32, 3]
000000 e0 71 bc be 9b 2f 7f be 1d e3 42 3e ab 96 07 3a
       -0.3680563 -0.24920504 0.1903195 0.00051722926
000010 ff 77 d5 3c 3a ac 14 3b f9 64 ca 3d 6f 35 e4 bd
       0.026058195 0.0022685663 0.0988254 -0.11143004
000020 8d 71 0a 40 39 6b 36 3e f9 f8 2f 3f 35 54 8b 3c
       2.1631806 0.1781434 0.6873928 0.017007926
000030 17 13 02 be 7a d3 dc bd 46 5e 15 c0 db cf 72 be
       -0.12702595 -0.107825235 -2.333879 -0.23712103
000040 06 52 1a bf b5 ae 4b 3c a2 23 79 be 59 8d 40 bf
       -0.6028141 0.01243179 -0.24329999 -0.7521568
000050 9d 46 41 bc ca 32 c4 bb 03 56 69 bd 86 35 91 3b
       -0.011796621 -0.0059875 -0.056966793 0.0044314293
000060 47 6c 18 be ea c5 f7 be b7 9b 02 3d 8f 39 c2 3b
       -0.14885055 -0.48393184 0.031886782 0.0059272717
000070 0c 6b 13 bd 84 46 17 bb 6a 16 e3 3e 4e 86 ae be
       -0.03599076 -0.0023082802 0.44353038 -0.3408684
000080 23 c0 f6 3c bc ca b9 bc 66 24 bc 3b 82 06 21 3b
       0.030120915 -0.02267968 0.0057416437 0.002457053
000090 d8 cb 97 3d b2 f0 71 3d b6 3d 09 c0 e5 be a6 3e
       0.07411927 0.059067436 -2.1443915 0.32567516
0000a0 07 e4 04 3f e4 3d 3c 3a 69 a4 3b 3e 50 a3 80 3e
       0.5191044 0.0007180853 0.18324436 0.25124598
0000b0 2d 4f a0 3b 37 0d 4f ba 47 5f 3f 3d 04 e8 5f bb
       0.004892251 -0.00078983925 0.046721723 -0.0034165392
0000c0 1f 5e 04 bd b0 f9 d8 3d 09 3a 38 bc 11 b9 25 3d
       -0.032316323 0.10594499 -0.011244305 0.040459696
0000d0 8f 2d 6f 3d c6 a3 db bb 69 be bf be b9 a4 c8 3e
       0.058393057 -0.006702873 -0.3744996 0.39188173
0000e0 a6 39 85 3d 83 1d c4 3e d7 b5 02 bf 8c f8 89 bc
       0.06505136 0.38303766 -0.51058716 -0.01684215
0000f0 0a 7c 40 3d 80 f5 88 bd d4 dc bd bf 2d 8c bf 3c
       0.046993293 -0.066874504 -1.4833016 0.02338227
000100 6c b8 b8 bb 45 3b 3f 3b 62 0f a4 bc 35 d2 c1 ba
       -0.005637219 0.0029179615 -0.020026866 -0.0014787378
000110 8b 8a b4 b9 f7 91 a4 bb 7d f1 00 3d e0 03 fb ba
       -0.00034435498 -0.005022283 0.0314803 -0.0019150935
000120 64 07 75 3e 66 cb cb be d0 fa a0 3c d4 e6 1e be
       0.239286 -0.39803618 0.019650847 -0.15517741
000130 12 11 3a be 38 82 94 3f 66 48 cd 3e de 35 bb be
       -0.18170574 1.160224 0.40094298 -0.36564535
000140 35 0e 4b bd 5a 4e 6a 3c cc d9 a9 3c 28 96 94 ba
       -0.049574096 0.014300907 0.020733736 -0.0011336254
000150 bf b6 b1 bc 00 99 c4 b9 49 89 86 39 06 05 a6 bc
       -0.021693585 -0.00037498027 0.00025660757 -0.020266067
000160 d2 06 84 3b 83 f2 cd ba 3b da ba bc 3f 80 00 bd
       0.0040291334 -0.0015712533 -0.022809139 -0.031372305
000170 43 e2 9d 3a 72 bc a0 bd 16 d2 21 bd 80 85 8c 3a
       0.0012045581 -0.07848443 -0.039506994 0.0010720938

bias f4 [32]
000000 36 39 50 3f 6b cb 90 c0 c7 b0 96 40 c7 0e d4 3f
       0.81337297 -4.5248313 4.7090793 1.656701
000010 0b 58 48 c0 bb 1f 60 3f f1 5d d4 3f 60 69 cc bd
       -3.1303737 0.87548417 1.6591169 -0.09981036
000020 13 30 9d bf 08 9c d7 bf b8 be d7 3f a7 96 2f 3f
       -1.2280296 -1.6844492 1.6855078 0.6858925
000030 88 5a 4a c0 aa 47 fc 3f 8b 80 02 bd c2 27 a2 40
       -3.1617756 1.970937 -0.03186087 5.0673532
000040 fb 78 14 c0 3e af 23 40 38 60 9e bf 78 a6 75 be
       -2.319884 2.557571 -1.2373114 -0.23989284
000050 58 80 43 40 ac 1c 9f 3f 9b 43 9b 40 e7 87 0f bf
       3.0547085 1.2430625 4.8520026 -0.56066746
000060 63 eb 17 c0 ad b9 66 40 b4 df 3b 3f 21 0a 3c c0
       -2.3737419 3.6050828 0.7338822 -2.9381182
000070 3c 91 b5 c0 72 d0 42 c0 4b 98 ba 3f 36 3c 76 c0
       -5.673979 -3.0439725 1.4577726 -3.847425

weight f4 [32, 32]
000000 bb 3d ee 3c c3 a5 27 bd 15 90 ba 3c bc 2f d9 3c
       0.02908217 -0.040929567 0.022773782 0.02651202
000010 7a 11 3a 3e a9 82 6c 3d a0 09 39 3e b8 c3 3c bc
       0.1817073 0.057741795 0.18070078 -0.011521272
000020 c4 84 24 3d ef 66 53 be 4d 4b 13 ba 6c ea 0e 3f
       0.040165678 -0.20644735 -0.00056188257 0.5582645
000030 6d 03 42 be 5d 96 b3 be 6a f5 1d be 94 9e 04 3f
       -0.1894662 -0.35075656 -0.1542565 0.5180447
000040 c0 85 78 bd e2 35 91 be aa f3 5d bc f5 5c b9 3b
       -0.06067443 -0.28361422 -0.013546864 0.0056568333
000050 75 f9 1d be f8 6a 73 be a3 cb d8 3f ec a3 de bd
       -0.15427192 -0.23771274 1.6937145 -0.10871109
000060 4c 22 d7 3c f7 36 92 3a dd 6e c0 3c c1 f6 1a be
       0.026261471 0.0011155297 0.023490364 -0.15133192
000070 2e 6d c8 3e 5a e8 9a 3f 89 e4 4a 3e 68 6d e5 3d
       0.39145797 1.2102158 0.19813742 0.11202508
000080 84 2d a7 bb 98 47 23 bf db 53 0f 3e e3 eb 37 bd
       -0.0051018614 -0.6378112 0.13996832 -0.044902693
000090 7d 79 8d bd 45 cd 06 bc 32 e9 c2 3e 7d 1d db 3c
       -0.06907938 -0.008227651 0.3806854 0.02674746
0000a0 1b f3 b5 3e d6 46 ff bc 25 8b 95 3e 39 b0 8c be
       0.35537037 -0.031161707 0.2920772 -0.27478197
0000b0 17 c0 5a be 58 10 4d bd b4 58 f6 bd 23 16 0f 3f
       -0.21362339 -0.050064415 -0.120286375 0.5589315
0000c0 04 57 39 be cc 83 dd be a1 3c 36 be 3a f0 59 3d
       -0.180996 -0.43264616 -0.17796566 0.053207614
0000d0 4b ef c3 be 68 7f 78 be 24 ad 39 3e 6e 4f 85 be
       -0.38268504 -0.24267352 0.18132454 -0.26037163
0000e0 02 1b 5d 3b e2 a2 4f 3d cb 2f ac 3e e3 b2 59 bf
       0.0033738022 0.050692447 0.33630213 -0.85038584
0000f0 2a e3 ac bd a6 b3 68 be 7a ef 98 3e c6 8d 4c bd
       -0.084417656 -0.2272478 0.29870206 -0.049939893
000100 d1 1f 91 bc 92 db 64 40 29 2c 69 3c 1f 50 6f be
       -0.017715367 3.5759015 0.01423172 -0.23370408
000110 ed 6a fd bb 6c 3a ea 3c 88 95 1e 3f 73 82 79 3e
       -0.007733694 0.02859231 0.61946917 0.24366169
000120 ab fd ea 3d ad 9c f8 3e 98 1d b3 bc 6f 0b 10 bd
       0.114741646 0.48557034 -0.021864697 -0.035167154
000130 13 b8 9e bb 17 d2 27 3e 40 3e 67 bd 42 b0 22 bf
       -0.0048437207 0.16388737 -0.05645585 -0.635502
000140 7a 05 bd be 9f 53 95 3e 5c f9 96 3d cf 75 88 bd
       -0.3691824 0.2916536 0.0737178 -0.06663095
000150 fb a8 30 3d 0d 81 9e bc 48 51 27 be 74 7c 37 bf
       0.043129902 -0.019348646 -0.163396 -0.71674275
000160 c7 f4 dd bb aa 0c 9b 3d 02 04 89 bd d3 27 96 3e
       -0.0067735645 0.07570775 -0.066902176 0.29327258
000170 4e 22 95 bc 69 9e 4e 3e 20 fd e8 bd 99 c4 1b 3c
       -0.018204834 0.20177616 -0.11376405 0.009507322
000180 f0 f7 08 3c 2f 6c ec ba 26 c6 a7 3b 8a ae fe bb
       0.008359894 -0.0018037612 0.0051200567 -0.0077722715
000190 8c c3 fb ba ec b1 cb bb bb 82 0d 3c 9d 33 d2 ba
       -0.0019208058 -0.0062162783 0.008637126 -0.001603711
0001a0 dc d3 9f bb 70 01 0e ba 38 da ae bb eb 5b 3d 3b
       -0.0048775505 -0.00054170843 -0.0053360723 0.0028893899
0001b0 3f d0 c7 3b b7 bd ba bb c9 6e d1 39 df 3f 95 bb
       0.006097823 -0.0056988853 0.00039946128 -0.004554733
0001c0 28 fb 84 bb 44 ee 03 3c 5d 46 b9 bb 1d a7 0c 3a
       -0.0040582605 0.008052412 -0.00565414 0.0005365478
0001d0 99 bd 38 bb 31 5f 9e 3c 75 b1 1f bc 14 78 89 bb
       -0.002818918 0.0193325 -0.009746899 -0.0041952226
0001e0 56 77 a4 3b 0c 7d c6 3b 59 50 25 3c ec af e2 3a
       0.0050191088 0.006057387 0.010089957 0.001729486
0001f0 38 94 7e b8 07 18 f5 ba 6b 7a 03 bc 44 07 e9 3a
       -6.069636e-05 -0.0018699177 -0.008024792 0.0017778655
000200 e4 e2 03 3a 83 d1 41 bc 8a 9a 89 3a 26 e9 7d bb
       0.0005031063 -0.011829737 0.0010498327 -0.0038743704
000210 54 2c 02 3c b4 f5 4f 3c 55 93 76 bc c7 cb 4f bc
       0.007945139 0.0126928575 -0.015049775 -0.012682862
000220 6f 0e ca bb 63 75 22 3c 70 d7 1f bb f6 04 64 3b
       -0.0061662714 0.0099156825 -0.0024389885 0.0034792996
000230 1c 2a 5e bc e1 15 cf bb 5b de 47 3c 80 b0 4c 3b
       -0.013559844 -0.006319747 0.01219901 0.0031233132
000240 39 ce 8b ba f0 dc b7 bb 9b 11 30 bb c3 1a 8a bc
       -0.0010666318 -0.0056110546 -0.0026865962 -0.016858464
000250 d5 15 e2 bb b3 3c b6 3b ea 3c fb 3b 0a c3 f6 39
       -0.0068995752 0.005561435 0.0076671736 0.00047066092
000260 87 dd 99 bc 2c dc 2c bc 76 0d a9 39 8d e0 0c bc
       -0.01878239 -0.01055054 0.0003224422 -0.008598459
000270 84 7d 17 3b e5 74 14 3c a9 37 81 3b 4e f6 03 3c
       0.0023115585 0.009061073 0.003943403 0.008054329
000280 a1 7f 1d 3f e6 5a 9c 3d 98 56 71 bd 13 ff f6 3c
       0.6152287 0.07634525 -0.058920473 0.030150926
000290 eb 34 b8 3e 64 98 da 3d 88 43 50 bd cf 23 b2 3d
       0.35977873 0.106735975 -0.050845653 0.08698236
0002a0 96 0b 39 be 2a bd b6 bd 7c 69 9d 3e ac 57 38 3f
       -0.18070826 -0.08922799 0.3074454 0.72008777
0002b0 27 0d 70 be 17 7c 5e be 06 6c a6 3c 4d 7d ce 3d
       -0.23442517 -0.21727024 0.020315181 0.10082493
0002c0 f2 a1 79 be 08 21 9a bd a7 b6 d7 bd 44 f5 db bc
       -0.24378183 -0.075258315 -0.10532885 -0.02685035
0002d0 44 d2 be 3d 1c 7c 1f bf bf 82 61 3f ed fd 21 3e
       0.09317449 -0.6229875 0.8809013 0.15819521
0002e0 04 03 e0 3c d2 a0 d4 3c 33 b9 af 3e 86 13 cd bd
       0.027345188 0.025955591 0.34320983 -0.100134894
0002f0 7c 30 26 40 47 70 0b 3f 62 e6 27 3e a5 2c 10 3e
       2.5967093 0.54468197 0.16396478 0.1407953
000300 ba ef 0c 3c 6c df 13 3c 08 08 3a 3c 1e f7 c0 3a
       0.008602077 0.009025436 0.011354454 0.0014722084
000310 1a c5 91 ba 7b 6d 26 bb 8c 9e 26 3c a5 0c 88 bb
       -0.0011121363 -0.0025394845 0.010169636 -0.004151898
000320 d9 63 4f bb 3e f8 2b bb a5 b7 b0 bc b3 dc 19 bc
       -0.0031645207 -0.0026240493 -0.021571944 -0.009390998
000330 89 82 2d 3a 6a 65 2c 3a 33 b4 3e bc 5a 79 71 39
       0.00066188775 0.0006576391 -0.0116396425 0.00023028758
000340 bf da ab 3a c0 61 2d bb f4 d2 93 bb 47 ec 5b bb
       0.0013111456 -0.0026455969 -0.0045112316 -0.003355758
000350 4d 4d 00 3c c0 b6 a1 3c 34 6c ac bb 34 d1 41 bc
       0.00783093 0.019740462 -0.0052619223 -0.011829663
000360 b8 44 cd 3a 79 37 0e 3c 28 25 5a 3c 03 fa eb bb
       0.0015660739 0.008680218 0.013314523 -0.0072014346
000370 ce 8b 12 3c 5a 96 d7 b9 40 91 0f bc 5e 1e bc bb
       0.008944465 -0.00041120016 -0.008762658 -0.0057409247
000380 84 a8 70 bc c3 0c 48 bc e4 b4 a6 bc 85 3a 80 bb
       -0.014688615 -0.012210074 -0.020349927 -0.003913226
000390 7e dc 4b bc f2 01 ab bc 56 d7 a3 3b a7 28 e4 3b
       -0.012442706 -0.020874951 0.0050000353 0.006962854
0003a0 14 e3 f8 3b 1b 9d 80 bb d4 9a 60 3c 7a b1 5a 3c
       0.007595429 -0.0039249784 0.013708789 0.013347978
0003b0 ce 58 e7 bb 3b 2c 0e 3c 33 26 9e bb b9 6e 46 bc
       -0.007060147 0.008677538 -0.004826331 -0.012111359
0003c0 8e d7 5b bc 8c 13 b4 bb 24 eb 17 bc 9b a0 8b ba
       -0.013418091 -0.005495494 -0.0092723705 -0.0010652723
0003d0 6d 2e a8 bb 04 d3 07 3b bb 24 57 bc 99 8d 79 3c
       -0.0051324875 0.002072514 -0.013131316 0.015231513
0003e0 6f 4e df bb d8 ef c9 3a bc f4 1f bc 92 50 f4 b9
       -0.00681477 0.0015406562 -0.009762939 -0.00046599336
0003f0 e0 2f 9a bb 75 51 31 bc b6 4d 04 3b 5c 8c 12 3c
       -0.004705414 -0.0108226435 0.002018792 0.008944597

bias f4 [32]
000000 82 eb b4 3e df cc 9a 3d 6a 8c 2d bf ba 8d 59 ba
       0.35335928 0.07558607 -0.6779238 -0.0008299012
000010 6b 9e d8 bb e8 86 43 3e 4a 8e d6 3b 7f 92 a7 3a
       -0.006610682 0.19094431 0.006547724 0.0012784748
000020 cc c6 23 bd 6d 47 c1 be d4 8c bb 3d e9 ff 17 3f
       -0.03998451 -0.37749806 0.0915772 0.5937486
000030 f1 2f 1b 3e 6e eb 3d 3b b8 bf 2e 3c 0a 0b 33 bb
       0.15155007 0.0028979438 0.0106658265 -0.0027319812
000040 1f 66 2b 3e 7f fc c9 bd 60 29 27 3e 4c 1b 42 bf
       0.16738175 -0.09862613 0.16324377 -0.758229
000050 ac 4a 20 bb 60 65 34 3d 3d 9d 8b 3e b4 2f ea be
       -0.002445857 0.04404199 0.272684 -0.4573952
000060 08 95 35 3b ed d1 9b 3b 69 1b 6e 3e 75 ac 10 bb
       0.0027707238 0.0047552497 0.23252644 -0.0022075449
000070 50 67 46 bb 08 4c 89 3c 0b bd aa bb 46 95 6a 3e
       -0.0030273981 0.016759887 -0.005210524 0.22908506

weight f4 [32, 3]
000000 60 e7 c2 be 3e c8 cc 3e 76 8a 77 be 5c 67 db 3e
       -0.3806715 0.39996523 -0.24173912 0.42852294
000010 10 0c 3c 3e 18 b9 8d bd 88 23 2d 3d 02 12 cc be
       0.18363976 -0.069200695 0.042270213 -0.3985749
000020 36 5d 6d be 54 9e 56 be a2 9a 86 bc ac 51 86 3e
       -0.23180088 -0.20958835 -0.016431157 0.26234186
000030 1c 73 3d be 5e 6e 30 be 36 d9 af 3e 88 ee 19 3e
       -0.18500942 -0.17229602 0.34345406 0.15032399
000040 bd 12 50 3d 8c 42 2f be 34 b4 41 be 98 bc 9c 3e
       0.05079912 -0.1711523 -0.18916398 0.30612636
000050 e8 14 1e 3f 56 0e 0c be 65 65 52 3e b7 ec a8 3d
       0.6175065 -0.13677344 0.20546491 0.08248275
000060 4b 3a c9 3e 69 ec 00 3f 75 69 ad be 09 18 0a 3e
       0.39302287 0.50360733 -0.3386952 0.13485731
000070 ee 48 cb bb 70 5c f8 3c 5d c2 15 be a4 41 a6 3e
       -0.0062037623 0.030317515 -0.14624925 0.32471955
000080 46 72 5a 3e 16 4b b7 be 7a f2 f3 bd 4d 8b 95 be
       0.21332654 -0.35799474 -0.11911483 -0.2920784
000090 06 da 00 be 3d 3d 14 bb a5 ee 03 be 9c b6 8a bd
       -0.1258317 -0.0022619509 -0.12884004 -0.06773111
0000a0 58 2d 8b be 6c 63 fa 3d 26 ab 17 3e 2c f3 5b 3e
       -0.27183032 0.122259945 0.14811382 0.21479481
0000b0 71 32 9b be 65 05 97 3c 84 0b c6 3e a0 ed 84 3e
       -0.3031192 0.01843519 0.3868066 0.25962543
0000c0 ee f2 45 3d 3c 1f bc 3e b6 28 28 be b3 08 b6 be
       0.04832738 0.3674258 -0.1642178 -0.35553512
0000d0 02 9f 31 3e fb 73 7c 3e e8 64 88 bc d8 89 a7 be
       0.17345813 0.24653618 -0.016649678 -0.32722354
0000e0 3e 85 43 3c d3 f5 30 3e 29 4a 9d bc 2d c3 40 3e
       0.011933623 0.17281274 -0.019200401 0.18824454
0000f0 23 ed 1a bf 7d 49 26 3e 29 fa 9b bc 53 ac 0b 3e
       -0.6051809 0.16238971 -0.019040184 0.13639955
000100 a5 22 03 3e c7 a6 bc 3e ed ba 08 3e a3 b9 00 3a
       0.12806185 0.3684599 0.13352557 0.00049104745
000110 d4 e9 5a 3e 70 ee 69 bd f6 b7 b1 3e 7d 07 30 be
       0.21378261 -0.057112157 0.34710664 -0.17190357
000120 f6 7a 24 3e f1 7e ae 3d ca a0 a5 3e d4 a7 0d 3f
       0.16062531 0.08520306 0.32349235 0.5533421
000130 b2 88 80 bd 32 a4 3f 3e bf 36 21 3e 89 6c 87 bc
       -0.062760726 0.1871498 0.1574354 -0.016531246
000140 da e8 ee 3d 57 05 40 be 3a f8 b8 3d c5 8b f7 be
       0.11665507 -0.18752037 0.090317205 -0.48348823
000150 aa df 3f 3d 39 9b d1 3e c3 68 70 be d0 8a 60 3e
       0.046844162 0.40938738 -0.23477463 0.21927953
000160 17 b3 15 3e db e3 ad 3c ca 6a 78 be 95 ac 9d 3e
       0.14619099 0.021226814 -0.24259487 0.30795732
000170 84 4e 2f 3e 0b 12 94 be 35 4e 9f be ee 65 3f be
       0.17119795 -0.28920016 -0.31114355 -0.18691227

bias f4 [32]
000000 00 00 00 00 00 00 00 00 00 00 00 00 00 00 00 00
       0.0 0.0 0.0 0.0
000010 00 00 00 00 00 00 00 00 00 00 00 00 00 00 00 00
       0.0 0.0 0.0 0.0
000020 00 00 00 00 00 00 00 00 00 00 00 00 00 00 00 00
       0.0 0.0 0.0 0.0
000030 00 00 00 00 00 00 00 00 00 00 00 00 00 00 00 00
       0.0 0.0 0.0 0.0
000040 00 00 00 00 00 00 00 00 00 00 00 00 00 00 00 00
       0.0 0.0 0.0 0.0
000050 00 00 00 00 00 00 00 00 00 00 00 00 00 00 00 00
       0.0 0.0 0.0 0.0
000060 00 00 00 00 00 00 00 00 00 00 00 00 00 00 00 00
       0.0 0.0 0.0 0.0
000070 00 00 00 00 00 00 00 00 00 00 00 00 00 00 00 00
       0.0 0.0 0.0 0.0

weight f4 [32, 32]
000000 71 19 af bd 5e ce 28 bc 5a 19 95 bd 9b 04 f3 be
       -0.085497744 -0.010303108 -0.07280226 -0.4746445
000010 ba 31 6f 3e 04 c7 1b bf 21 57 59 3e 7e 3d f6 3d
       0.23358813 -0.6085055 0.21224643 0.120234475
000020 21 b9 5f bb d1 ad 96 3d a2 84 0d 3e d3 79 97 3e
       -0.0034137445 0.073573716 0.13820127 0.29585132
000030 99 d8 b4 be 30 c9 05 be 97 16 ff bd 1b 5f 04 3e
       -0.353215 -0.13065028 -0.124554805 0.12926905
000040 96 71 7f be 01 cd f0 3d 87 f4 92 bd d2 96 b2 3e
       -0.24945673 0.117578514 -0.07175546 0.34880692
000050 ab 8e 8a 3d 74 d9 ae be eb 33 84 be b1 7c 6b bd
       0.06765493 -0.3415028 -0.2582086 -0.057491962
000060 1f fe 47 3e f0 79 9c be 37 c8 6c be 2e db 9b be
       0.19530533 -0.3056178 -0.23123251 -0.30440658
000070 3f f0 df bd 5c 3a 83 3e ca 86 94 3d 0a 35 f9 3e
       -0.10934495 0.25630462 0.072522715 0.48673278
000080 73 a6 1f 3e cc c3 a3 bd 40 f5 e1 be f1 3f 0f be
       0.15590839 -0.0799633 -0.44132423 -0.13989235
000090 4f 02 c7 3d 39 38 25 3e c4 19 1c be 4a c2 a6 3e
       0.09717237 0.16134728 -0.15244204 0.32570106
0000a0 bf 92 36 bd bd 75 43 bf 60 c9 47 3a ac e8 37 3e
       -0.04457354 -0.7635153 0.0007621255 0.17959851
0000b0 8e e4 34 be 92 d8 7c bd 64 59 be 3d 4d dc 07 bf
       -0.17665312 -0.061729975 0.09294394 -0.5307053
0000c0 d2 3c 6d 3e 38 44 77 3c 69 6a 9a be bc 7c 9b bd
       0.23167732 0.015091948 -0.3015931 -0.075921506
0000d0 f7 67 c0 bd ea 6f f1 bd e0 1c 98 3c f1 5b f7 bc
       -0.0939483 -0.11788924 0.018568456 -0.030195208
0000e0 55 d9 56 be 70 b3 9f 3e f6 54 6d 3e 1d a1 7b 3d
       -0.20981343 0.31191587 0.23176941 0.061432946
0000f0 ff c3 98 3d b7 15 e2 3e b1 c3 07 bd ef f5 89 3e
       0.07459258 0.44157192 -0.03314561 0.26945445
000100 b2 72 a3 3e bc af 91 be 82 fe f4 bd 9d 6c 96 bd
       0.31923443 -0.28454387 -0.11962606 -0.07344935
000110 aa 92 93 be 18 79 f5 be 0b e8 52 be f5 92 61 3d
       -0.28822833 -0.4794395 -0.2059633 0.05507179
000120 9a 4c 80 bd b8 59 02 3e f1 66 9c be 92 74 a7 3d
       -0.062646106 0.12729537 -0.30547288 0.08176531
000130 3c d7 fa 3e 92 42 46 be dc d3 71 bb 61 28 16 3e
       0.48992336 -0.19361332 -0.003689996 0.14663841
000140 08 26 ad be b9 b6 c3 be 91 ca 0a be ae 85 24 3e
       -0.33818078 -0.38225344 -0.13553835 0.1606662
000150 0f 04 97 be 6e 03 06 be 22 c0 96 bd 04 db bc 3e
       -0.29495284 -0.13087246 -0.07360865 0.36885846
000160 0d 34 9c be 04 be 01 3f bd e8 83 bc fc d4 83 bc
       -0.30508462 0.50680566 -0.01610219 -0.01609277
000170 8e c0 26 be 50 68 51 ba 9c 6d 98 3e 72 a2 81 bd
       -0.16284391 -0.0007988261 0.29771125 -0.06329812
000180 76 ad 8b be 16 2a 38 3e 82 cb 33 bc 75 86 8d bd
       -0.27280778 0.17984805 -0.010973813 -0.06910411
000190 4a 0b 97 3d 1f 43 21 be e6 bb 18 be 9f 04 93 3d
       0.073752 -0.15748261 -0.14915428 0.07178616
0001a0 a4 bf d7 bd d4 75 38 be 79 56 e1 bd 03 b2 ac be
       -0.105345994 -0.18013698 -0.110028215 -0.33729562
0001b0 b3 b9 38 bc 6a a8 d1 3e 83 cf e7 3d 9c 09 92 3e
       -0.011274743 0.40948802 0.113188766 0.28522956
0001c0 9e de ee be 94 d9 ae bd d4 9b a4 3e 86 4b 7c be
       -0.46654218 -0.085375935 0.32150137 -0.24638185
0001d0 dd c2 e4 bc 56 93 69 3d fa 2f 18 3e 32 bf 5b be
       -0.02792495 0.057025276 0.14862052 -0.21459654
0001e0 b8 c2 c6 be 37 3b 84 be 77 53 c3 3d 22 1e 99 3c
       -0.38820434 -0.25826427 0.09537404 0.018691126
0001f0 ef 41 3b 3e 69 63 34 3f 81 14 bd 3e 1e 07 59 be
       0.1828687 0.7046419 0.36929706 -0.21194121
000200 f5 a2 85 3e b1 c5 cf bc 6a 28 31 3e bb c0 20 3f
       0.2610089 -0.025362821 0.17300573 0.62794083
000210 35 64 03 3f 2e 34 97 be 6e 90 1d be 79 c8 c3 bd
       0.5132478 -0.29531997 -0.15387127 -0.095597215
000220 63 40 4d 3e 2c 77 13 be 2a 23 08 bd ec dc 8c 3d
       0.20044093 -0.14400929 -0.03323666 0.06878075
000230 ea f4 0b bd ff a8 21 3d 43 ed 1b 3e 34 a3 95 3d
       -0.034169115 0.039467808 0.15227227 0.07306519
000240 a0 f0 13 be ec 2e c6 3d 6b a9 a6 bd 10 6b a7 be
       -0.1444726 0.096769184 -0.08137783 -0.3269887
000250 d6 a7 ed be aa ec 9b be 79 e0 3a bd 55 51 be be
       -0.4641711 -0.30453998 -0.04562423 -0.37171426
000260 bd 49 4e 3d 14 8f 23 3e d3 0c ec be 45 77 2d 3b
       0.05036329 0.15972549 -0.46103534 0.0026468795
000270 a6 da c4 3e 9a 0d 19 be 18 56 d9 bd de 63 d9 3d
       0.38448066 -0.14946595 -0.10612124 0.10614751
000280 f5 c8 34 be 4d d1 51 3e c0 c2 a7 3d 51 b2 5c be
       -0.17654784 0.20489998 0.081914425 -0.21552397
000290 dc 77 9c 3e 29 15 46 3d 99 92 14 3e a6 78 fc 3d
       0.30560195 0.048360024 0.14509048 0.12327699
0002a0 c9 24 11 be dd 57 5f be 62 d3 04 bf 50 2e 1d 3e
       -0.14174189 -0.21810861 -0.51885045 0.15349698
0002b0 40 18 22 3f 28 4f 96 be 0b e1 c8 3d b0 d2 1c bc
       0.6331825 -0.29357266 0.098085485 -0.009571716
0002c0 8d d5 cc 3d 26 97 7e 3e 56 91 b3 bd 15 87 54 3e
       0.10001669 0.24862346 -0.08767955 0.20754655
0002d0 eb 38 16 3c 5f 70 7c be ce a5 c4 bd 59 a9 62 bc
       0.009168844 -0.24652241 -0.09601937 -0.013834321
0002e0 ad 17 8b 3e 07 df 98 be 7c fe 7d 3e e7 6d 1f 3e
       0.271665 -0.29857656 0.2480411 0.15569268
0002f0 a0 c9 05 3f 68 b6 2f be ad 24 99 3e fb f3 66 be
       0.5226078 -0.17159426 0.29910794 -0.22554009
000300 66 e7 fe bd 51 0f 25 3e 56 44 7c 3e 47 8f 0e be
       -0.124464795 0.16119124 0.24635443 -0.13921843
000310 2d cf ef 3d c7 39 a3 3e eb de d0 bd 4d b2 6c 3d
       0.117094375 0.31880018 -0.10198768 0.05778723
000320 03 fa 6c bd 32 e7 ee bd 3c a5 0b 3f 32 a7 08 3e
       -0.057855617 -0.11665191 0.54549 0.1334503
000330 b5 ae ff 3c 79 29 d7 be 8a 6e 33 3f e1 a2 ab bd
       0.031211236 -0.4202383 0.70090544 -0.08380676
000340 ae 66 dd bd a2 ff d9 be 3b 90 29 3e 71 f2 ef 3d
       -0.108106 -0.42577845 0.16558926 0.11716164
000350 5d 0a 93 be af 28 47 3e 14 88 00 bf aa 4a 81 3d
       -0.28718844 0.19449113 -0.5020764 0.06313069
000360 d8 a1 08 be 6d d5 08 be d7 d0 71 be 53 04 57 bc
       -0.13342988 -0.13362665 -0.23614822 -0.01312359
000370 91 cd 95 bd 54 3c f1 bc 56 3d 0c 3e dc 53 f3 bd
       -0.07314599 -0.029447712 0.13695273 -0.11881229
000380 e2 c9 a1 3d 27 eb d4 be 99 2c 10 bb a9 51 24 3c
       0.07899834 -0.41585657 -0.0021999239 0.010029235
000390 21 fa 52 3a 89 88 1d 3f 62 bc 1d be 7d dc e9 bd
       0.00080481364 0.6153646 -0.15403894 -0.11419008
0003a0 65 4c 95 be be 1c 12 3e ef 12 62 be 8d f7 e6 3e
       -0.29159847 0.14268777 -0.22077535 0.4511074
0003b0 94 c6 1f be 0d e9 41 be 68 90 2f be 45 b4 5f 3e
       -0.15603095 -0.18936558 -0.1714493 0.21846111
0003c0 a1 85 87 bd c5 ce 0d 3e 87 da 17 3e d0 c8 e3 3e
       -0.066172846 0.13848408 0.14829455 0.44489145
0003d0 ca 66 b4 be b4 d8 6b 3d 58 e7 da 3e 2a 98 e9 be
       -0.35234672 0.05757971 0.42754626 -0.45623904
0003e0 e6 0f 3a be a2 c9 d5 bd 83 34 3e be f3 ec b9 bb
       -0.18170127 -0.10438849 -0.18574719 -0.0056739985
0003f0 af 64 9a bd 41 5e df 3d f0 8b 59 3e 69 a4 ae 3d
       -0.07538735 0.109066494 0.21244788 0.085274525

bias f4 [32]
000000 00 00 00 00 00 00 00 00 00 00 00 00 00 00 00 00
       0.0 0.0 0.0 0.0
000010 00 00 00 00 00 00 00 00 00 00 00 00 00 00 00 00
       0.0 0.0 0.0 0.0
000020 00 00 00 00 00 00 00 00 00 00 00 00 00 00 00 00
       0.0 0.0 0.0 0.0
000030 00 00 00 00 00 00 00 00 00 00 00 00 00 00 00 00
       0.0 0.0 0.0 0.0
000040 00 00 00 00 00 00 00 00 00 00 00 00 00 00 00 00
       0.0 0.0 0.0 0.0
000050 00 00 00 00 00 00 00 00 00 00 00 00 00 00 00 00
       0.0 0.0 0.0 0.0
000060 00 00 00 00 00 00 00 00 00 00 00 00 00 00 00 00
       0.0 0.0 0.0 0.0
000070 00 00 00 00 00 00 00 00 00 00 00 00 00 00 00 00
       0.0 0.0 0.0 0.0

weight f4 [2, 32]
000000 8f 6f 03 3e 1f 42 7c 3c 64 1f d6 bb b7 1c 85 ba
       0.12835525 0.015396624 -0.006534504 -0.0010155652
000010 c8 b6 8c 38 39 c6 bb 3d e8 d1 9c b9 a5 b6 e9 b9
       6.709766e-05 0.09168667 -0.0002991103 -0.00044577304
000020 c2 45 9c bd b6 9b b7 bc 7b f9 9e 3c 7d 6a 94 bc
       -0.07630493 -0.022413116 0.019406071 -0.018117184
000030 e5 f9 ba 3c 7c ff e7 b9 f6 31 18 3a ec 24 42 bb
       0.022824237 -0.00044250104 0.00058057846 -0.0029624058
000040 33 5f 2f bd c5 5c 29 bc 5c d5 4f bd 68 04 49 bb
       -0.0428154 -0.010337059 -0.050740585 -0.0030672792
000050 d9 1c 27 bb 98 44 68 3b ee 11 d8 3d b9 cb d0 3c
       -0.0025499372 0.0035441276 0.10550295 0.025487768
000060 b2 8a 30 bb ab f1 e5 3a 68 83 2c bd 0f 38 f6 ba
       -0.0026938138 0.0017543336 -0.042117506 -0.0018785017
000070 bc 7f 96 3a a9 a5 80 ba 45 09 d9 ba 52 e4 12 3d
       0.001148216 -0.0009814996 -0.0016558549 0.035862274
000080 1d 3c 01 3c 8a d8 18 bd 53 f1 e2 3d 3d 4c 37 3b
       0.007887867 -0.037315883 0.11081185 0.0027969026
000090 7f 0a 9a bb f9 2a aa bb 1d 39 12 3b ee f5 a4 3a
       -0.0047009583 -0.005193111 0.0022311874 0.00125855
0000a0 74 bb 38 bb b0 e0 c1 3c c7 7d 53 bc 9d 5b 35 3d
       -0.0028187903 0.02366671 -0.012908406 0.044276822
0000b0 aa e5 8b 3c c8 5e 8e bb e2 fe e1 3a 85 05 25 bb
       0.017077286 -0.004344795 0.0017242099 -0.0025180292
0000c0 24 e1 1f bc 91 f7 38 3d 74 21 b3 3c 1f f6 14 bd
       -0.009758268 0.045157973 0.021866538 -0.036367532
0000d0 77 21 43 3b f3 9a cf b9 80 ba 0f 3c 7b 46 6a 3c
       0.0029774585 -0.00039597563 0.008772492 0.01429903
0000e0 98 1c 3e 3b 4a 1a ba b9 e7 fa 55 bc 9f bb d7 39
       0.0029008742 -0.0003549627 -0.013060308 0.00041147784
0000f0 e3 8f 7b 3b 5f bd 8e 3d cc a0 c8 37 ce 18 b2 3c
       0.0038385324 0.069697134 2.3916735e-05 0.021740343

bias f4 [2]
000000 ec 08 2b bd 0e 11 09 3e
       -0.041756555 0.13385412

weight f4 [1, 32]
000000 60 f8 d6 3d 0e 89 29 be d4 aa a5 3b af 9d 6f 3e
       0.104965925 -0.16556188 0.0050557647 0.23399995
000010 55 f6 84 be d6 7f 76 3d 2b cc 00 3e ce b6 cf 3e
       -0.25969186 0.060180508 0.12577884 0.40569156
000020 f1 55 17 3e d5 78 7c 3d 33 b3 83 be 0d b4 bb bd
       0.14778878 0.061638672 -0.25722656 -0.09165201
000030 e6 27 3b be ca 05 0f bb f4 7b 36 3e ab 34 a0 be
       -0.18276939 -0.002182352 0.17820722 -0.31290182
000040 58 6a 0e bd 52 10 70 3d d8 8d 22 be f2 67 42 3d
       -0.034769386 0.058609314 -0.15874422 0.04746241
000050 c2 5b 12 bd 45 95 92 3e 5a b3 3e 3e 5d 99 36 be
       -0.03573204 0.2862951 0.18623105 -0.17831941
000060 38 07 48 be 71 2f 79 be 5f 91 eb 3d da 3f f9 3c
       -0.19534004 -0.24334504 0.11502337 0.030425955
000070 23 68 5c 3d a4 46 69 3e 6b bc 0b bd 6c b0 53 be
       0.05381025 0.22780854 -0.034115236 -0.20672768

loc f4 [32, 2]
000000 c3 10 97 be d2 98 69 3e 57 bb 0b be 7a 1b 74 3e
       -0.29504976 0.22812203 -0.13645683 0.23838606
000010 8e 87 ae 3e 14 ff 14 3e 8c c2 9e 3d 70 d4 c6 bd
       0.34087795 0.1455043 0.077519506 -0.09708488
000020 fc 91 be be e4 f1 31 3e ea 5a ff 3e 58 fc 21 3e
       -0.37220752 0.1737743 0.4987405 0.15818918
000030 a3 59 94 3d 02 7b 87 be bc 52 c0 be 9a b3 36 3e
       0.07243659 -0.26461035 -0.3756312 0.1784195
000040 70 4c 98 be ae 7d 17 be 74 47 ba be 1d a1 c7 3e
       -0.29745817 -0.14794037 -0.3638264 0.38990107
000050 bc cd ad bc 6c ea 29 3e fb bf f3 be b0 75 1d be
       -0.021216266 0.16593331 -0.47607407 -0.15376925
000060 a0 a3 49 3e 35 9c 44 3e 1f 3b 8c be b4 b3 5e bd
       0.19691324 0.19200213 -0.27388856 -0.054370597
000070 5a 40 e9 3e 2b 84 b3 3e fd 8a 2b be c8 9e b4 bd
       0.4555691 0.35061774 -0.16752239 -0.088193476
000080 6a f8 9e 3e 52 72 44 3e 5e 24 9e 3e 84 88 2c 3e
       0.310489 0.19184235 0.3088712 0.16848952
000090 73 72 ec bd 4c e6 8e 3e 59 f0 dd 3e e6 c0 8f 3e
       -0.11545267 0.27910078 0.43347433 0.28076857
0000a0 7f f1 e2 bd d0 b0 22 be 54 aa fc 3e ff 35 ab 3e
       -0.11081218 -0.15887761 0.493487 0.33439633
0000b0 60 88 07 be 68 bc 6d 3e 92 d7 a2 be 7a e5 62 3e
       -0.13235617 0.23216403 -0.31805092 0.22157851
0000c0 dc cc 9b 3e 2c a0 33 3d 00 4c e8 3c 6b 36 9e 3d
       0.30429733 0.043853924 0.028356552 0.07725223
0000d0 87 49 87 be aa bc 50 be 73 cc de be 3a 62 c4 3e
       -0.26423284 -0.2038447 -0.43515357 0.3835619
0000e0 85 1d 01 3f d2 5d 26 be e1 73 1d 3e 62 6f 6a be
       0.5043567 -0.16246727 0.15376236 -0.22894052
0000f0 30 8a 26 bc f0 88 9a 3c 61 32 99 be 74 80 6f 3d
       -0.010164782 0.018864125 -0.2992125 0.05847211

scale f4 [32, 2]
000000 a5 ae 47 3c e4 48 03 3c a5 ae 47 3c e4 48 03 3c
       0.012187635 0.008012984 0.012187635 0.008012984
000010 a5 ae 47 3c e4 48 03 3c a5 ae 47 3c e4 48 03 3c
       0.012187635 0.008012984 0.012187635 0.008012984
000020 a5 ae 47 3c e4 48 03 3c a5 ae 47 3c e4 48 03 3c
       0.012187635 0.008012984 0.012187635 0.008012984
000030 a5 ae 47 3c e4 48 03 3c a5 ae 47 3c e4 48 03 3c
       0.012187635 0.008012984 0.012187635 0.008012984
000040 a5 ae 47 3c e4 48 03 3c a5 ae 47 3c e4 48 03 3c
       0.012187635 0.008012984 0.012187635 0.008012984
000050 a5 ae 47 3c e4 48 03 3c a5 ae 47 3c e4 48 03 3c
       0.012187635 0.008012984 0.012187635 0.008012984
000060 a5 ae 47 3c e4 48 03 3c a5 ae 47 3c e4 48 03 3c
       0.012187635 0.008012984 0.012187635 0.008012984
000070 a5 ae 47 3c e4 48 03 3c a5 ae 47 3c e4 48 03 3c
       0.012187635 0.008012984 0.012187635 0.008012984
000080 a5 ae 47 3c e4 48 03 3c a5 ae 47 3c e4 48 03 3c
       0.012187635 0.008012984 0.012187635 0.008012984
000090 a5 ae 47 3c e4 48 03 3c a5 ae 47 3c e4 48 03 3c
       0.012187635 0.008012984 0.012187635 0.008012984
0000a0 a5 ae 47 3c e4 48 03 3c a5 ae 47 3c e4 48 03 3c
       0.012187635 0.008012984 0.012187635 0.008012984
0000b0 a5 ae 47 3c e4 48 03 3c a5 ae 47 3c e4 48 03 3c
       0.012187635 0.008012984 0.012187635 0.008012984
0000c0 a5 ae 47 3c e4 48 03 3c a5 ae 47 3c e4 48 03 3c
       0.012187635 0.008012984 0.012187635 0.008012984
0000d0 a5 ae 47 3c e4 48 03 3c a5 ae 47 3c e4 48 03 3c
       0.012187635 0.008012984 0.012187635 0.008012984
0000e0 a5 ae 47 3c e4 48 03 3c a5 ae 47 3c e4 48 03 3c
       0.012187635 0.008012984 0.012187635 0.008012984
0000f0 a5 ae 47 3c e4 48 03 3c a5 ae 47 3c e4 48 03 3c
       0.012187635 0.008012984 0.012187635 0.008012984
