qauv_ws/src/qauv_track_pkg/qauv_track_pkg/bc_policy/bc_policy_finally.pt (torch, 35442 bytes, 18 tensors)

log_std f4 [2]
0	0xc0708536	-3.7581306
1	0xc067def3	-3.6229827

weight f4 [32, 3]
0	0x3d5c7459	0.053821895
1	0x3e513757	0.20431267
2	0xbece10f5	-0.40247312
3	0xbe3e0b19	-0.18558921
4	0xbeab2936	-0.3342988
5	0x3cdb70a8	0.026787117
6	0xbedd437a	-0.43215543
7	0x3dfa9913	0.12236228
8	0xbdfc6319	-0.12323589
9	0xbe93ec23	-0.28891096
10	0x3ea6a1d8	0.32545352
11	0xbe56df4f	-0.20983623
12	0x3e9b5ada	0.30342752
13	0x3e823947	0.25434324
14	0x3d38a422	0.045078404
15	0x3a028e36	0.00049802975
16	0xbee64040	-0.44970894
17	0x3c84f72d	0.016231144
18	0xbda5933c	-0.08084723
19	0xbeaed6a5	-0.34148136
20	0xbdb08974	-0.08619967
21	0xbdab34e0	-0.083596945
22	0xbe5c1528	-0.21492445
23	0xbe356916	-0.17715868
24	0xbed852e4	-0.4225074
25	0xbde65458	-0.11246556
26	0x3d01b1a2	0.031663544
27	0x3d5046da	0.05084882
28	0x3e7c79a9	0.24655785
29	0xbd181aef	-0.03713506
30	0xbd2ca0d0	-0.04214555
31	0xbeb13f9e	-0.3461885
32	0x3d6dc546	0.058049463
33	0x3e7d37ff	0.24728392
34	0xbd3f3a6c	-0.046686575
35	0x3e0a1e80	0.13488197
36	0x3e3be738	0.18349922
37	0x3e1d2944	0.15347773
38	0x3e10789a	0.14108506
39	0x3ecbe7b0	0.398252
40	0x3dc1a3af	0.09455048
41	0xbc50c7c7	-0.012742943
42	0x3e89fcc7	0.26950666
43	0xbd85bc6b	-0.065300785
44	0xbe7d7ab8	-0.24753845
45	0x3e3695fa	0.17830649
46	0xbe37e1ca	-0.17957225
47	0xbe6dc5fd	-0.23220058
48	0xbe86f16d	-0.26356068
49	0x3da065f4	0.07831946
50	0xbab74623	-0.0013982694
51	0xbeaa1484	-0.33218777
52	0x3e5a6d4c	0.21330756
53	0xbcfcc29c	-0.030854516
54	0xbc27c416	-0.010239622
55	0x3d740319	0.059573267
56	0xbeee86fa	-0.46587354
57	0x3e8257a7	0.25457498
58	0xbe0278d1	-0.127414
59	0x3e0ec5b5	0.13942607
60	0x3e686484	0.22694594
61	0xbecff0f8	-0.40613532
62	0xbd87f838	-0.06639141
63	0xbe1d05eb	-0.15334289
64	0x3e7f2b4c	0.2491886
65	0x3d30caa9	0.04316202
66	0xbebd6313	-0.3698965
67	0x3cf1fdd9	0.02953999
68	0x3e1b5328	0.1516844
69	0x3e873e4f	0.26414725
70	0xbda5937d	-0.08084772
71	0x3e988b8e	0.29793972
72	0xbed08f34	-0.40734255
73	0x3e6ceffc	0.23138422
74	0x3ed4cfa6	0.41564673
75	0x3e86bfd4	0.26318228
76	0xbe957f1a	-0.29198533
77	0x3c3c62fa	0.011498207
78	0xbeb2890e	-0.3487019
79	0xbe72446e	-0.23658916
80	0x3e9408a8	0.28912854
81	0x3e8cba28	0.27485776
82	0x3e3d2b8e	0.18473646
83	0xbd9e8923	-0.077410005
84	0xbe8a02cb	-0.26955256
85	0x3eaccdb7	0.33750698
86	0xbc6d72c8	-0.014492698
87	0x3e94b2cd	0.29042664
88	0x3e8d0721	0.275445
89	0x3dbbe19e	0.091738924
90	0x3ebea28f	0.37233397
91	0x3df9d492	0.12198748
92	0x3c8f5fa8	0.017501667
93	0x3e99f1fc	0.30067432
94	0x3edcada3	0.43101224
95	0x3c9455eb	0.018107375

bias f4 [32]
0	0xbca947f0	-0.020664185
1	0xbe01315c	-0.12616485
2	0x3f17174b	0.5901992
3	0x3d122b6a	0.035685934
4	0x3eaf8bdb	0.3428639
5	0x3ec9657e	0.39335245
6	0xbe460ef6	-0.19341645
7	0x3c85a05b	0.016311815
8	0xbeefa2be	-0.4680385
9	0x3e75edaa	0.24016443
10	0x3f037ba5	0.5136054
11	0x3e0bc64c	0.13649863
12	0x3c9a8ef9	0.018867003
13	0xbea88356	-0.329127
14	0xbd205756	-0.03914579
15	0x3b8fc336	0.0043872846
16	0xbe789bc9	-0.24278177
17	0xbdf9eb77	-0.122031145
18	0xbf3eae8c	-0.7448509
19	0xbc564845	-0.013078754
20	0xbeebce9a	-0.46056062
21	0x3c2a3626	0.010388887
22	0x3d2e452a	0.04254643
23	0xbeb587ec	-0.35455263
24	0x3e2ec1f6	0.17066178
25	0x3ed4b035	0.41540685
26	0x3e7ff3e8	0.24995387
27	0x3eac6ee6	0.3367836
28	0xbdef63f7	-0.11688989
29	0x3e8fa1c0	0.28053093
30	0xbd26b66c	-0.040701315
31	0xbeca1f80	-0.39477158

weight f4 [32, 32]
0	0x3eb4581e	0.35223478
1	0xbf18dfe9	-0.5971666
2	0x3eb47045	0.35241905
3	0x3e4f1397	0.20222317
4	0x3e955821	0.291688
5	0x3dd1fb95	0.102530636
6	0xbf28c3ed	-0.6592396
7	0xbf3f998d	-0.74843675
8	0xbe771dbe	-0.2413244
9	0x3e8e25c9	0.27763203
10	0x3e70fbf5	0.23533614
11	0x3debb558	0.11509198
12	0x3dd4e4e2	0.103952184
13	0xbe20fb9e	-0.15720984
14	0xbce83171	-0.028343888
15	0x3ce6ca62	0.028172676
16	0x3e731bd3	0.23741083
17	0xbe6d79a4	-0.23190933
18	0xbf16e76b	-0.58946866
19	0x3e947e47	0.29002592
20	0xbf481b6e	-0.78166854
21	0x3ebc06cb	0.36723933
22	0x3f12d18a	0.5735098
23	0xbdefe079	-0.11712737
24	0x3dbe3fb6	0.09289496
25	0xbe1d319d	-0.15350957
26	0x3d791c6a	0.060818113
27	0x3f1d21e9	0.6137987
28	0xbe142a75	-0.14469321
29	0x3f0055f2	0.5013114
30	0xbd88ec8c	-0.06685743
31	0x3d83992e	0.06425701
32	0x3ed3f676	0.41398972
33	0xbeb67c0f	-0.35641524
34	0x3e32979e	0.1744065
35	0x3f296042	0.661625
36	0x3ea7495e	0.32673162
37	0xbe6d7a85	-0.23191269
38	0xbe8dfe1c	-0.27732933
39	0x3e773b18	0.24143636
40	0x3ee6435c	0.44973266
41	0xbe30626e	-0.17225048
42	0x3e9c26af	0.30498263
43	0xbe398eed	-0.18120928
44	0xbe6060f2	-0.21911982
45	0x3e4ee543	0.20204644
46	0xbdcc625e	-0.099796996
47	0x3e04ef1c	0.12981838
48	0x3ec6da0a	0.38838226
49	0x3ed73787	0.42034552
50	0x3dda18f2	0.10649289
51	0xbed6703f	-0.41882512
52	0x3e0edc38	0.13951194
53	0x3e440203	0.19141392
54	0xbe458be7	-0.1929165
55	0xbd921597	-0.07133024
56	0xbc710198	-0.014709853
57	0xbea339b4	-0.31879961
58	0xbcd5648c	-0.026048921
59	0xbe2a1c2b	-0.16612308
60	0xbe9d521e	-0.30726713
61	0x3e0126b6	0.12612423
62	0xbe915d98	-0.2839172
63	0x3caad2b5	0.020852426
64	0xbe0d4361	-0.13795234
65	0x3e7798c2	0.24179366
66	0x3f43a176	0.76418245
67	0x3cf1c298	0.029511735
68	0xbdc5f87a	-0.09666534
69	0x3f212bc5	0.6295741
70	0xbdb2f20b	-0.08737572
71	0x3f0a65b3	0.5406143
72	0xbd1331ce	-0.03593617
73	0x3d512c5f	0.051067706
74	0x3f348282	0.7051164
75	0x3db6877d	0.08912561
76	0x3d731ce7	0.059353735
77	0xbf2d845b	-0.67780083
78	0x3df897e9	0.121383496
79	0x3ebe786a	0.37201244
80	0xbebfbf09	-0.37450436
81	0xbd1b0361	-0.03784502
82	0x3e50962b	0.20369785
83	0x3e39d096	0.18145975
84	0x3dd0475d	0.101698615
85	0x3e5faadb	0.2184252
86	0xbbc458f1	-0.005992048
87	0xbea2ab2c	-0.3177122
88	0xbd9cf2b3	-0.07663479
89	0x3f26adcf	0.6510896
90	0x3ec876f1	0.39153245
91	0x3e65bea1	0.22436
92	0xbf2d9fd0	-0.6782198
93	0xbe1b8173	-0.151861
94	0xbe38c00b	-0.18042009
95	0xbe593a85	-0.2121373
96	0xbe23c68e	-0.15993711
97	0x3eecf2d9	0.46279028
98	0x3e19f444	0.15034586
99	0xbd186626	-0.03720679
100	0xbf3fe6bf	-0.74961466
101	0xbeb32be2	-0.34994417
102	0x3e257c0b	0.161606
103	0x3ed2098b	0.41022906
104	0x3f18d34e	0.59697425
105	0xbf20be07	-0.6278996
106	0xbe9b1923	-0.30292615
107	0xbf057136	-0.5212587
108	0x3cbc0264	0.022950359
109	0xbe92a403	-0.28640756
110	0xbe45bd10	-0.19310403
111	0xbeb88b71	-0.36043885
112	0x3edeb843	0.43499956
113	0xbf14a9c1	-0.58071524
114	0xbdd733fa	-0.105079606
115	0xbe39bea1	-0.18139125
116	0x3e2a8879	0.16653623
117	0xbcf19dea	-0.029494245
118	0x3e718577	0.23586069
119	0x3c21ad89	0.009868034
120	0xbe887426	-0.26651114
121	0x3e5a5271	0.21320511
122	0xbe2f1013	-0.17095976
123	0xbef66d63	-0.4813033
124	0xbe4a2ac6	-0.1974288
125	0xbecc1de5	-0.39866558
126	0xbd926a40	-0.07149172
127	0x3e69fcf6	0.22850403
128	0x3d8682be	0.06567906
129	0xbee31b40	-0.44356728
130	0x3e294ee3	0.16533999
131	0xbd374eaf	-0.044752773
132	0x3f0cb252	0.54959595
133	0x3dc909c6	0.09816317
134	0x3c0fbc03	0.008772853
135	0xbe37f070	-0.17962813
136	0xbe483696	-0.19552073
137	0x3d68f249	0.056871686
138	0xbed3e100	-0.413826
139	0x3d3aafe3	0.045577895
140	0xbdc24df0	-0.09487522
141	0x3bb110ba	0.0054036053
142	0xbeadf478	-0.33975577
143	0x3e51fd56	0.20506796
144	0x3e06fd20	0.13182497
145	0x3e938cef	0.2881846
146	0xbdab3779	-0.0836019
147	0xbe68234f	-0.22669719
148	0x3d4f7f70	0.050658643
149	0x3e7cb610	0.24678826
150	0x3e2e41aa	0.17017236
151	0x3e16bf3a	0.14721385
152	0xbe8371b4	-0.25672686
153	0x3f002871	0.5006171
154	0x3cbb1ec7	0.022841824
155	0xbe498ea3	-0.19683318
156	0x3e8d6f49	0.27623966
157	0xbdf001a0	-0.1171906
158	0xbe8feb7b	-0.28109345
159	0x3f21513b	0.6301457
160	0xbdd03fb3	-0.101684
161	0x3e380473	0.17970447
162	0x3ea6ccef	0.32578227
163	0x3d4de6f5	0.050269086
164	0xbe768f05	-0.24077995
165	0x3c808265	0.015687177
166	0xbeaa4437	-0.3325517
167	0xbea205ae	-0.31644958
168	0x3f0f08b2	0.55872643
169	0x3bb15bb2	0.0054125423
170	0xbd8e2c4e	-0.06942044
171	0x3d78c24f	0.060732182
172	0x3e4b42a4	0.1984964
173	0xbde0b53a	-0.10972066
174	0xbd0d31e5	-0.03447141
175	0x3c8a9ab2	0.016919468
176	0x3f55b46f	0.83478445
177	0x3e846893	0.25861034
178	0x3ef7c4b9	0.48392275
179	0xbf1916e4	-0.59800553
180	0xbc8c3198	-0.017113492
181	0x3db49dee	0.08819185
182	0x3dd593f7	0.10428613
183	0x3eb99961	0.3624983
184	0xbe85702c	-0.26062143
185	0xbe3c41d4	-0.18384486
186	0x3e6e0e50	0.23247647
187	0xbda06bc5	-0.078330554
188	0x3e795920	0.24350405
189	0xbea3aaba	-0.31966192
190	0x3cc83a71	0.02444193
191	0xbe71b9df	-0.2360606
192	0x3e21433a	0.15748301
193	0x3dce859f	0.1008408
194	0x3e9280ed	0.28613988
195	0xbe314c3b	-0.17314236
196	0x3f60646a	0.8765322
197	0xbdc2f7fe	-0.09519957
198	0x3c237e9a	0.009978915
199	0xbd13d0eb	-0.03608791
200	0xbf1fd1aa	-0.62429297
201	0x3ec72582	0.38895804
202	0x3e28f674	0.16500264
203	0x3e3de3f6	0.18543991
204	0x3d815a06	0.06315999
205	0x3eb2e80c	0.34942663
206	0x3e443c27	0.19163571
207	0xbec1c900	-0.37848663
208	0xbea18a8f	-0.31551024
209	0xbe5c6faa	-0.21526971
210	0xbdd5426e	-0.10413061
211	0xbe9a015e	-0.30079168
212	0x3d46ad4d	0.048505116
213	0xbe4aef0f	-0.19817756
214	0x3dba38b7	0.09092849
215	0xbeb62835	-0.3557755
216	0x3dc0ff7a	0.09423728
217	0x3e17d76c	0.1482827
218	0xbe5de027	-0.21667539
219	0x3f9541eb	1.1660742
220	0xbea93ee1	-0.33055785
221	0x3dd61efb	0.10455128
222	0xbc8620ce	-0.016373064
223	0x3dcc60d4	0.09979406
224	0xbe96ebb3	-0.294767
225	0x3d2abe52	0.04168541
226	0x3fa1308e	1.2592943
227	0x3f35c142	0.70998013
228	0x3e185884	0.14877516
229	0x3eaa7577	0.33292744
230	0xbe2b041c	-0.16700786
231	0xbcb699fa	-0.022290219
232	0xbeb9d8b8	-0.36298156
233	0x3ea07145	0.31336418
234	0x3e599727	0.21249066
235	0xbe9fa219	-0.31178358
236	0x3d8568c4	0.06514123
237	0xbee5e95f	-0.4490461
238	0xbf123633	-0.5711395
239	0x3e85c147	0.2612402
240	0xbe75db1c	-0.24009365
241	0xbe32696d	-0.17423029
242	0xbf21777e	-0.63072956
243	0xbe974652	-0.29545838
244	0xbecaf4b3	-0.39639816
245	0x3e243fb2	0.16039923
246	0x3ed4ff19	0.41600874
247	0xbf39b76f	-0.7254552
248	0x3e07ccf9	0.13261785
249	0xbe22a981	-0.15884973
250	0x3ea6223a	0.32447988
251	0x3e880834	0.26568758
252	0x3e9dce18	0.308213
253	0xbeafa4e3	-0.34305486
254	0xbdc3fc49	-0.09569604
255	0xbec15621	-0.37761024

bias f4 [32]
0	0x3e8a4f47	0.2701361
1	0xbdd25fe2	-0.102721944
2	0x3eae70c3	0.34070405
3	0xbe188798	-0.14895475
4	0xbca93102	-0.020653252
5	0xbe72dcb0	-0.23716998
6	0x3e5fbf10	0.21850228
7	0x3eaed57a	0.34147245
8	0x3d779332	0.06044311
9	0xbe93648c	-0.2878765
10	0x3e850628	0.2598126
11	0xbe2a5d36	-0.1663712
12	0xbd3160ac	-0.043305084
13	0xbdef39ad	-0.11680923
14	0xbe3ab703	-0.18233876
15	0x3d33d01a	0.043899633
16	0x3dcc25bd	0.099681355
17	0xbdd31970	-0.10307586
18	0x3eae5036	0.3404557
19	0xbe6c3810	-0.23068261
20	0x3dd7c0aa	0.10534795
21	0x3ee5af90	0.44860506
22	0x3e99da6a	0.3004945
23	0x3e8eed03	0.279152
24	0x3d82d378	0.06387991
25	0xbe92a046	-0.28637904
26	0x3d590abb	0.05298875
27	0x3de6c7c3	0.1126857
28	0xbe033908	-0.12814724
29	0xbdcb38d0	-0.099229455
30	0x3ec016be	0.3751735
31	0xbe736477	-0.23768793

weight f4 [32, 32]
0	0x3d784e60	0.06062162
1	0x3e0f8169	0.1401421
2	0x3ff3dc38	1.905158
3	0x3dbee44b	0.09320887
4	0xbc78cd5b	-0.015185679
5	0xbc9c27f1	-0.019062014
6	0x3e816abc	0.25276744
7	0x3e8152ea	0.2525857
8	0x3f6bb04e	0.92065895
9	0xbea8b774	-0.32952464
10	0x3f0c2557	0.54744476
11	0xbe7044bc	-0.2346372
12	0xbeb4152b	-0.351724
13	0xbe92b1e8	-0.28651357
14	0xbed458b4	-0.41473925
15	0xbf1c80e4	-0.6113417
16	0x3f153ba7	0.5829415
17	0xbed778b0	-0.42084265
18	0x40571e18	3.3612118
19	0x3c024e88	0.007953294
20	0xbda87ba7	-0.0822671
21	0x3e8e3185	0.27772155
22	0x3ef16395	0.47146288
23	0x40479f24	3.1190882
24	0xbe63dfda	-0.22253361
25	0xbd47b989	-0.048760924
26	0x3e92e95a	0.28693658
27	0x3f8b9821	1.0905801
28	0xbf6a3a6a	-0.9149538
29	0x3dfd0f84	0.12356475
30	0xbdd00c65	-0.10158614
31	0xbe584dbe	-0.21123406
32	0x3ef06a06	0.4695589
33	0xbec1835f	-0.3779554
34	0x3f168cde	0.58808696
35	0xbeb6fb05	-0.35738388
36	0xbe1d090c	-0.15335482
37	0xbf906656	-1.128123
38	0x3f87c510	1.0607014
39	0x3f2e1841	0.6800576
40	0x3f2453bb	0.6419026
41	0xbd654233	-0.055971336
42	0x3e4b10b9	0.19830598
43	0xbeaac92a	-0.333566
44	0x3e546c9c	0.20744556
45	0xbe446211	-0.19178034
46	0xbf3700a4	-0.7148535
47	0x3f057f0a	0.5214697
48	0xbe9ffeb9	-0.31249025
49	0xbf41d78b	-0.7571952
50	0x3e89080b	0.2676395
51	0xbe85280f	-0.26007125
52	0x3f375765	0.7161773
53	0x403f6425	2.9904873
54	0x3e124f2f	0.14288019
55	0x3e5ebf62	0.21752694
56	0xbedd5723	-0.43230543
57	0xbe85c676	-0.26127976
58	0xbea81a10	-0.32832384
59	0x3d41b899	0.047295187
60	0xbf3e28b5	-0.74280864
61	0x3c0f2e5b	0.008739079
62	0xbe9f24d0	-0.31082773
63	0xbe405447	-0.1878215
64	0xbc3fc8eb	-0.011705617
65	0xbd49b54c	-0.049245164
66	0xbe831859	-0.25604513
67	0xbd9b5978	-0.07585424
68	0x3d8067c6	0.06269793
69	0x3e8af38c	0.27138937
70	0xbe26066b	-0.16213386
71	0x3ea67eee	0.32518715
72	0xbdf0e221	-0.11761881
73	0xbe02f22e	-0.12787697
74	0x3e84f511	0.2596822
75	0x3e549711	0.20760752
76	0xbe31f69e	-0.17379233
77	0xbe95334b	-0.29140696
78	0x3f43e170	0.76515865
79	0xbe2d2729	-0.1690947
80	0xbe87a4e1	-0.2649298
81	0x3f165ecc	0.587384
82	0xbf1a170e	-0.6019143
83	0x3e76f557	0.24117027
84	0x3b4e20b9	0.003145261
85	0xbf1acf02	-0.6047212
86	0xbd84fb41	-0.064932354
87	0x3d475738	0.048667163
88	0x3e344041	0.17602636
89	0x3dba9502	0.09110452
90	0xbd1316e3	-0.0359105
91	0xbcd09354	-0.025460877
92	0x3f0677f9	0.52526814
93	0xbdb99224	-0.09061077
94	0xbed30dbe	-0.41221422
95	0x3f02c14f	0.51076216
96	0xbf3805a4	-0.71883607
97	0x3f44698e	0.76723564
98	0xbc07abae	-0.008280678
99	0x3f2fbdba	0.68648875
100	0x3e8800ad	0.26563016
101	0x3f456c3c	0.7711828
102	0xbfabd3a5	-1.3423964
103	0x3d3725a3	0.044713628
104	0x3e52564d	0.20540734
105	0x3f398a3d	0.7247656
106	0x3dc9d3de	0.098548636
107	0x3f275e6f	0.6537847
108	0xbed05eb4	-0.40697253
109	0x3be38174	0.0069429222
110	0xbea162a6	-0.31520575
111	0x3d213716	0.039359175
112	0x3eba5735	0.3639466
113	0x3dbc679d	0.0919945
114	0xbe9b8a03	-0.30378732
115	0xbd6ab4a4	-0.05730118
116	0xbeb9356a	-0.36173564
117	0xbf0cd104	-0.5500643
118	0x3ddf60cd	0.10907135
119	0xbef27a31	-0.4735885
120	0x3e41ef4c	0.18938941
121	0xbf0ddb00	-0.5541229
122	0x3edf01e8	0.43556142
123	0xbe7823d5	-0.24232419
124	0x3e33f24e	0.175729
125	0x3ef254f6	0.47330445
126	0xbe7716ad	-0.24129744
127	0x3ebc6fa0	0.36803913
128	0x3e32a519	0.17445792
129	0x3d8e3e4d	0.06945477
130	0x3df09575	0.11747257
131	0xbedb9e02	-0.42893988
132	0x3eaff192	0.3436399
133	0x3dda9708	0.10673338
134	0x3e1f7236	0.15570912
135	0x3e0d509a	0.13800278
136	0xbeba684e	-0.36407703
137	0xbec63815	-0.38714662
138	0xbe9238ec	-0.28559053
139	0xbf28a6b6	-0.6587938
140	0xbe106cc9	-0.14103998
141	0x3cc3ae6e	0.023886885
142	0x3ce86f58	0.028373405
143	0x3ef2d60a	0.47428924
144	0x3d9b4a87	0.07582574
145	0xbd81d90f	-0.06340229
146	0x3afbb9ac	0.0019205115
147	0x3e346ba5	0.17619188
148	0xbe104522	-0.14088872
149	0xbcd2af02	-0.025718216
150	0x3e1443ca	0.14478984
151	0x3d0398e1	0.03212822
152	0x3dc379a4	0.095446855
153	0x3caa45bb	0.020785203
154	0x3e3c16d8	0.18368089
155	0xbe679328	-0.2261473
156	0x3e894131	0.2680755
157	0x3dbfef12	0.09371771
158	0xbf1ac227	-0.604525
159	0x3d00c0eb	0.03143398
160	0x3f0319b6	0.51211107
161	0xbdca20fe	-0.09869574
162	0xbe4eeebe	-0.2020826
163	0xbe6b4a3b	-0.22977535
164	0x3decbb16	0.11559121
165	0xbd45fdb1	-0.048337642
166	0xbf16527c	-0.5871961
167	0x3f015cb4	0.5053208
168	0xbc07b2ef	-0.008282407
169	0xbf2bb6d2	-0.67075837
170	0x3de4d1a6	0.111728
171	0x3eab5889	0.33465984
172	0x3e18935b	0.14899962
173	0xbef24ba0	-0.47323322
174	0x3e82a096	0.25513142
175	0xbd1a8e8e	-0.037733607
176	0x3e9a6330	0.301538
177	0xbe1e5dc8	-0.15465462
178	0xbc4d8291	-0.0125433365
179	0xbe18903f	-0.14898776
180	0x3e247eab	0.16063945
181	0x3cb2ac31	0.021810623
182	0x3f8330be	1.024925
183	0xbec0bfe0	-0.3764639
184	0x3e8bb5c5	0.27287117
185	0xbd53f1e6	-0.051744364
186	0x3e0f5726	0.13998088
187	0xbd06f138	-0.032944888
188	0x3e7ae602	0.24501804
189	0x3eca6f15	0.39537874
190	0x3ee340ac	0.44385278
191	0xbf04496f	-0.5167455
192	0x3c81cb0f	0.015843896
193	0x3e4e6e26	0.20159206
194	0xbd29a7f2	-0.04141993
195	0x3eb2dfb2	0.3493629
196	0xbf08847c	-0.53327155
197	0xbe5cacf1	-0.21550347
198	0x3e8147d7	0.25250122
199	0x3e13aaf5	0.14420684
200	0x3f02cd85	0.5109485
201	0xbded725a	-0.115940765
202	0x3d98b427	0.07456236
203	0x3e9975a4	0.29972565
204	0xbe8b3c7c	-0.27194583
205	0x3efa79fa	0.48921186
206	0xbdfea827	-0.12434416
207	0xbdd5d267	-0.10440522
208	0x3ee89c21	0.45431617
209	0xbdfe1164	-0.12405661
210	0x3e182735	0.14858706
211	0x3ed36b8b	0.41292986
212	0x3d6f8a3b	0.058481436
213	0x3e8e3499	0.27774504
214	0xbee8f1d1	-0.4549699
215	0x3e827bb1	0.25484994
216	0xbe53059c	-0.20607609
217	0x3ec16069	0.37768868
218	0x3e4cee9f	0.20012902
219	0x3da8e37d	0.08246515
220	0x3ebd1c20	0.3693552
221	0xbe306009	-0.17224135
222	0x3de9a1e3	0.114078306
223	0xbeb55091	-0.3541303
224	0x3e5c0470	0.21486068
225	0x3e746b4d	0.23869057
226	0x3e88f2c8	0.26747727
227	0x3ef3eb94	0.4764067
228	0x3e86d1ae	0.26331848
229	0xbeeac132	-0.4585052
230	0xbe8885de	-0.26664633
231	0xbde76cc2	-0.11300041
232	0x3df6a2b3	0.12042751
233	0xbe85d365	-0.26137844
234	0x3e8868ca	0.26642448
235	0x3ea567d4	0.32305777
236	0xbe4bdc3c	-0.19908231
237	0x3e194626	0.14968166
238	0xbde99f45	-0.114073314
239	0xbdf92dff	-0.12166976
240	0xbe2edba3	-0.17075972
241	0xbf28b428	-0.65899897
242	0x3ea1e525	0.31620136
243	0xbd1de231	-0.03854579
244	0xbe448259	-0.19190349
245	0x3e331a58	0.17490518
246	0x3da07008	0.07833868
247	0x3ed0353a	0.4066561
248	0xbda59df6	-0.08086769
249	0x3f041514	0.5159466
250	0xbe5d6bf0	-0.21623206
251	0xbe11f1f3	-0.14252453
252	0xbf6cdb19	-0.92521816
253	0xbea987b0	-0.33111334
254	0x3d5f6467	0.05453911
255	0xbe1470ab	-0.14496104

bias f4 [32]
0	0x3eb4b582	0.3529473
1	0x3ea63397	0.32461235
2	0xbe49673a	-0.19668284
3	0xbe6b24dc	-0.2296328
4	0x3d2ce092	0.042206354
5	0x3c3ebdc6	0.011641925
6	0x3d86e2d9	0.065862365
7	0x3e59a7d5	0.21255429
8	0xbd2ec46b	-0.042667788
9	0x3e353ac9	0.17698206
10	0x3dff3bef	0.12462603
11	0xbdffbef1	-0.12487591
12	0xbe87002f	-0.26367328
13	0xbe28800d	-0.16455097
14	0xbccaae6b	-0.024741372
15	0xbe3d2c43	-0.18473916
16	0x3e5c2b2e	0.21500847
17	0xbd9a391c	-0.07530424
18	0x3e53c98d	0.20682354
19	0x3e959c0e	0.29220623
20	0xbe23f72f	-0.16012262
21	0xbe1efb3d	-0.15525527
22	0x3d752779	0.059852097
23	0x3d592eb6	0.053023063
24	0x3d259948	0.040429384
25	0xba8045b4	-0.0009786398
26	0x3e8715e2	0.26383883
27	0x3e6753de	0.22590587
28	0xbccc444e	-0.024934914
29	0x3e2ef5e5	0.17085989
30	0x3d9564e8	0.07294637
31	0xbdd40b05	-0.10353664

weight f4 [32, 3]
0	0xbea63002	-0.32458502
1	0xbe280dc8	-0.16411507
2	0xbecbbec2	-0.39793974
3	0xbe8de432	-0.27713162
4	0xbe951de9	-0.29124382
5	0x3e525ef0	0.20544028
6	0xbd14a864	-0.036293402
7	0x3e237926	0.15964183
8	0x3e1efa50	0.15525174
9	0xbe61809a	-0.22021714
10	0x3e748d66	0.23882064
11	0x3dd7c1de	0.10535024
12	0x3e4a4efc	0.19756693
13	0xbca85ea3	-0.020552939
14	0xbdef1877	-0.11674588
15	0x3d3147f7	0.04328152
16	0xbdf3de8c	-0.11907682
17	0x3c76204d	0.01502235
18	0x3eb36c43	0.35043535
19	0xbd71c2b4	-0.059023574
20	0x3e430279	0.19043912
21	0xbe97adcc	-0.29624784
22	0x3c8dbedd	0.017302925
23	0x3dd2cecc	0.102933496
24	0x3bccc374	0.0062488858
25	0x3ed5dfd7	0.4177234
26	0xbd80449c	-0.06263086
27	0xbdfcefea	-0.123504475
28	0x3e8d5c7e	0.27609628
29	0x3ed47eca	0.41502982
30	0x3e5498cb	0.20761411
31	0xbe882f29	-0.2659848
32	0x3efa10d8	0.48840976
33	0xbda12f14	-0.078703076
34	0x3e4b95ca	0.19881359
35	0xbde339f5	-0.11095039
36	0xbda8aa14	-0.08235565
37	0xbf0dfed6	-0.55466974
38	0x3db9b8b3	0.09068432
39	0x3eb99330	0.36245108
40	0xbd843156	-0.064547226
41	0xbd9a877e	-0.07545374
42	0x3e15bafc	0.1462211
43	0x3f1ec58b	0.62020177
44	0x3e60a555	0.21938069
45	0x3ea50a83	0.32234582
46	0xbe850baf	-0.25985476
47	0x3d6bc59a	0.057561494
48	0x3ec465cd	0.38358918
49	0x3ebd9db4	0.3703438
50	0xbea66568	-0.32499242
51	0xbebf2302	-0.37331396
52	0x3e78c38e	0.24293348
53	0x3d2fcd93	0.04292066
54	0x3de7980c	0.113082975
55	0x3e9d5ae9	0.3073342
56	0xbc2cba06	-0.010542398
57	0xbd46a33b	-0.048495512
58	0xbd3a2e7a	-0.04545448
59	0xbebdebce	-0.37093967
60	0xbe051a21	-0.12998249
61	0xbbfc9c84	-0.007709088
62	0xbd2692f9	-0.040667508
63	0xbd56c6a8	-0.052435547
64	0x3c841065	0.016121099
65	0xbe1b55b9	-0.1516942
66	0xbf12c5d2	-0.573331
67	0x3e99627e	0.29957956
68	0x3e36ae61	0.17839958
69	0xbe488009	-0.19580092
70	0x3dd9a561	0.10627247
71	0x3ebd176b	0.3693193
72	0x3eba56af	0.3639426
73	0x3dffedec	0.12496552
74	0x3eb7e651	0.35917905
75	0x3e2bccb2	0.16777304
76	0x3d7d6879	0.06186721
77	0x3eadb2ab	0.33925375
78	0x3da209d4	0.07912031
79	0x3eb4148d	0.3517193
80	0xbf18b7fc	-0.5965574
81	0xbe6ee9e1	-0.23331405
82	0x3e0ba28e	0.13636228
83	0xbde2c2f0	-0.110723376
84	0xbea9a1e1	-0.33131316
85	0xbe40a18c	-0.18811625
86	0xbd78a10b	-0.060700458
87	0xbea4ebaf	-0.32211062
88	0xbdb350a2	-0.08755614
89	0xbd58e299	-0.052950475
90	0xbe34669f	-0.17617272
91	0xbe2a66e6	-0.16640815
92	0xbde83e99	-0.113400646
93	0xbe3dbcad	-0.18529005
94	0x3e41be90	0.1892035
95	0x3ec09642	0.37614638

bias f4 [32]
0	0x00000000	0.0
1	0x00000000	0.0
2	0x00000000	0.0
3	0x00000000	0.0
4	0x00000000	0.0
5	0x00000000	0.0
6	0x00000000	0.0
7	0x00000000	0.0
8	0x00000000	0.0
9	0x00000000	0.0
10	0x00000000	0.0
11	0x00000000	0.0
12	0x00000000	0.0
13	0x00000000	0.0
14	0x00000000	0.0
15	0x00000000	0.0
16	0x00000000	0.0
17	0x00000000	0.0
18	0x00000000	0.0
19	0x00000000	0.0
20	0x00000000	0.0
21	0x00000000	0.0
22	0x00000000	0.0
23	0x00000000	0.0
24	0x00000000	0.0
25	0x00000000	0.0
26	0x00000000	0.0
27	0x00000000	0.0
28	0x00000000	0.0
29	0x00000000	0.0
30	0x00000000	0.0
31	0x00000000	0.0

weight f4 [32, 32]
0	0x3ee912d1	0.45522168
1	0xbd252092	-0.040314265
2	0xbd366826	-0.044532917
3	0x3e5cbc95	0.21556313
4	0xbe1925ac	-0.14955777
5	0x3ccc0a67	0.024907304
6	0x3e8697ad	0.26287594
7	0xbe846e08	-0.25865197
8	0x3da82181	0.08209515
9	0x3e52c9d2	0.20584801
10	0xbde455ba	-0.111491635
11	0xbd6f835f	-0.058474895
12	0x3f19815b	0.59963006
13	0xbe70e199	-0.23523559
14	0x3d4b3927	0.04961505
15	0xbe174cc2	-0.14775375
16	0xbb0e5529	-0.002171824
17	0xbe808bfa	-0.25106794
18	0xbea413f7	-0.32046482
19	0x3e83ec1e	0.2576608
20	0x3dba47ab	0.09095701
21	0x3d54228a	0.05179075
22	0xbf257016	-0.64624155
23	0x3d4eb843	0.050468694
24	0x3ebaa015	0.36450258
25	0x3d01745b	0.031605106
26	0xbd0f1359	-0.03493056
27	0x3d1d72d9	0.038439605
28	0x3e54385a	0.20724621
29	0xbd5ffc1c	-0.05468379
30	0x3d2414c0	0.04005885
31	0x3ef6b738	0.4818666
32	0xbecca60f	-0.39970443
33	0x3efe0625	0.49614063
34	0xbec33898	-0.38129115
35	0x3eb0c5bf	0.34525868
36	0xbdc8a12e	-0.097963676
37	0xbcd2d413	-0.02573589
38	0x3ead5b61	0.3385878
39	0xbd2f1cfd	-0.042752255
40	0xbcb707a1	-0.022342505
41	0xbc119efd	-0.008888003
42	0xbe4a38ae	-0.19748184
43	0xbe01ea2f	-0.1268699
44	0xbdc22e0f	-0.09481441
45	0xbce79798	-0.028270528
46	0xbe6a6fd7	-0.22894226
47	0xbe902695	-0.28154436
48	0xbc9a816d	-0.018860543
49	0x3f0567ef	0.52111715
50	0xbe223555	-0.15840657
51	0xbc6dd36e	-0.014515741
52	0xbd1f9cd7	-0.038967934
53	0x3e67535a	0.2259039
54	0x3bd12af8	0.006383296
55	0x3f2864a8	0.6577859
56	0xbc7e5237	-0.015522531
57	0xbe131ba6	-0.14366016
58	0x3b05201a	0.0020313323
59	0x3e262dfd	0.1622848
60	0x3ed01a9d	0.40645304
61	0x3d12b604	0.035818115
62	0xbd5cf5e7	-0.05394545
63	0xbda53971	-0.08067597
64	0xbe783bc7	-0.24241553
65	0x3c3d8ae7	0.011568761
66	0xbe57b099	-0.2106346
67	0x3e007732	0.1254547
68	0xbee58c3c	-0.44833553
69	0x3e8be6ee	0.27324623
70	0xbe8feb37	-0.28109142
71	0xbe1d8cd3	-0.15385751
72	0x3eab5085	0.3345987
73	0x3d9098f9	0.07060427
74	0xbe32c72a	-0.17458788
75	0x3dcc0d00	0.09963417
76	0x3e005e4e	0.12535974
77	0x3dc6a6fa	0.09699817
78	0x3ef5bbdf	0.47994897
79	0x3ab93878	0.0014131209
80	0x3c011587	0.007878668
81	0x3e054f1b	0.13018458
82	0xbe1ee84d	-0.15518303
83	0xbeaf77e0	-0.34271145
84	0xbf0711a7	-0.5276131
85	0xbe21491b	-0.15750544
86	0xbcfc0f88	-0.030769125
87	0xbe8bf96c	-0.2733873
88	0xbe54d851	-0.20785643
89	0x3e0c4901	0.13699724
90	0xbedab2cd	-0.4271454
91	0x3ef9a786	0.48760623
92	0xbd511a05	-0.051050205
93	0xbde0ac63	-0.1097038
94	0xbe375874	-0.17904836
95	0x3e1d08bf	0.15335368
96	0xbe35d6e8	-0.17757761
97	0x3e622fc1	0.22088529
98	0xbe31335c	-0.17304748
99	0xbe8b696d	-0.2722887
100	0xbec1d3f5	-0.37857023
101	0x3c3b44af	0.01142995
102	0xbe9973fe	-0.29971308
103	0xbdad615f	-0.08465838
104	0xbed005e2	-0.40629488
105	0xbf0e1697	-0.5550322
106	0xbe9dcce5	-0.30820385
107	0x3d267c7c	0.04064606
108	0x3e0ea4c4	0.1393004
109	0x3e8478fb	0.2587355
110	0x3dbdce38	0.09267849
111	0x3d762c71	0.060100976
112	0xbd3c83ba	-0.04602406
113	0x3e158ae5	0.14603765
114	0x3eba8c9b	0.36435398
115	0x3e332315	0.17493851
116	0x3dc63372	0.09677781
117	0x3e92707a	0.28601438
118	0xbf06c30a	-0.52641356
119	0x3cae3dc3	0.021269685
120	0x3e6d1452	0.23152283
121	0xbe14d6ee	-0.14535114
122	0x3d5feb47	0.054667737
123	0xbe2243b1	-0.15846135
124	0xbeece882	-0.4627114
125	0xbd7b110a	-0.061295547
126	0xbe32151b	-0.17390864
127	0x3c99c582	0.018770937
128	0xbe8d24b7	-0.27567074
129	0x3d2183fa	0.039432503
130	0x3e4c8117	0.19971119
131	0x3d4bc3b0	0.04974717
132	0xbe30f65d	-0.1728148
133	0xbd756707	-0.059912708
134	0x3dc7d890	0.09758103
135	0x3e1adb7b	0.15122788
136	0xbe087866	-0.13327178
137	0xbe19fb57	-0.15037285
138	0x3ce38e43	0.027777797
139	0x3ea25303	0.31703958
140	0xbe53cdc0	-0.20683956
141	0xbd86bd31	-0.06579054
142	0x3eaedea9	0.3415425
143	0xbdef078a	-0.1167136
144	0x3e7d3e87	0.24730884
145	0xbe9ad86c	-0.30243242
146	0xbe610009	-0.2197267
147	0x3eb32b43	0.34993944
148	0x3d83de27	0.064388566
149	0x3db87ae6	0.09007816
150	0x3eae1566	0.340007
151	0x3e1358f3	0.143894
152	0x3e8d41f2	0.27589375
153	0xbddfd3f5	-0.109290995
154	0x3eda2311	0.4260488
155	0x3f2c6ee4	0.67356706
156	0xbe87ad39	-0.26499346
157	0xbd85f4e1	-0.065408476
158	0x3eba7367	0.3641617
159	0x3e9c0a04	0.3047639
160	0x3c7710ba	0.0150796715
161	0x3ebc00ba	0.36719304
162	0xbec09958	-0.37616992
163	0xbe0dba8f	-0.13840698
164	0x3e88b333	0.26699218
165	0x3f17c5c0	0.5928612
166	0x3c4605ac	0.012086313
167	0x3eb4f4dd	0.35343066
168	0x3e644b41	0.22294332
169	0xbe9fdfc8	-0.3122542
170	0x3e2eb698	0.17061841
171	0xbe2fc8b3	-0.17166404
172	0x3cb90447	0.022585047
173	0xbdbe8948	-0.09303528
174	0x3e245fb5	0.16052134
175	0xbec8eaee	-0.39241737
176	0x3e2c3c44	0.16819865
177	0xbea3f928	-0.3202603
178	0x3dc8f7d6	0.09812896
179	0x3e3cc7b4	0.18435556
180	0xbea595df	-0.32340905
181	0xbe9186be	-0.28423113
182	0x3e1470e9	0.14496197
183	0x3c7be3ee	0.015374167
184	0x3e798f50	0.24371076
185	0x3e268602	0.16262057
186	0x3e653e06	0.22386941
187	0xbe9d4356	-0.30715436
188	0x3d119be0	0.035549045
189	0x3e145676	0.14486107
190	0xbea83f07	-0.32860586
191	0x3e113307	0.14179622
192	0x3e07432c	0.13209218
193	0xbd74e154	-0.059785202
194	0xbde0a9b0	-0.10969865
195	0x3e85941b	0.26089558
196	0xbec7febd	-0.39061537
197	0xbeace5aa	-0.3376897
198	0x3d9c7ee0	0.07641387
199	0x3e591987	0.21201144
200	0x3dad0616	0.084484264
201	0xbe6d1c5e	-0.23155352
202	0x3d1ab38e	0.037768893
203	0x3e2f822f	0.17139505
204	0x3e86e7a8	0.26348615
205	0xbe753e8d	-0.23949642
206	0xbe58e4c3	-0.21181016
207	0xbdf45a87	-0.11931329
208	0x3eae936f	0.34096858
209	0xbe5e8106	-0.21728906
210	0x3ec12d48	0.3772986
211	0x3ec6260d	0.38700905
212	0x3de8d6a9	0.11369068
213	0x3ea608d6	0.32428616
214	0x3e761815	0.24032624
215	0xbe0cc2ab	-0.13746135
216	0xbed84a55	-0.4224421
217	0x3ea0ffbb	0.31445107
218	0xbe8798ab	-0.26483664
219	0x3e1d598b	0.15366189
220	0x3d976f57	0.07394283
221	0x3ec6f6b9	0.3886011
222	0xbeac5166	-0.33655852
223	0xbde830c1	-0.11337424
224	0x3e3126d1	0.17299964
225	0x3e33466e	0.17507336
226	0x3edcb5b3	0.43107376
227	0x3ea8364b	0.32853922
228	0x3e24a547	0.16078673
229	0x3ea54dfc	0.3228606
230	0xbd82f82b	-0.063949905
231	0xbf031f14	-0.51219296
232	0xbd3a820c	-0.04553418
233	0xbe25a1d0	-0.16175008
234	0x3e50e04e	0.20398065
235	0x3e842c0b	0.25814852
236	0xbebccf47	-0.3687689
237	0xbc0bfb60	-0.008543819
238	0x3e1af06d	0.15130778
239	0x3ba5cb02	0.005059601
240	0x3ded91ed	0.11600099
241	0x3a8ff154	0.0010981956
242	0xbd2e1285	-0.04249813
243	0x3d2836ed	0.041068006
244	0x3e8dd28f	0.27699706
245	0x3e894f74	0.2681843
246	0x3e3740b0	0.1789577
247	0xbda2c697	-0.07948034
248	0x3e910a81	0.28328326
249	0xbe887fbf	-0.26659963
250	0xbeab2b02	-0.3343125
251	0xbc848788	-0.016177908
252	0x3e212589	0.15736975
253	0xbe0ac109	-0.135502
254	0xbf2a6eed	-0.6657551
255	0x3b819dca	0.0039555775

bias f4 [32]
0	0x00000000	0.0
1	0x00000000	0.0
2	0x00000000	0.0
3	0x00000000	0.0
4	0x00000000	0.0
5	0x00000000	0.0
6	0x00000000	0.0
7	0x00000000	0.0
8	0x00000000	0.0
9	0x00000000	0.0
10	0x00000000	0.0
11	0x00000000	0.0
12	0x00000000	0.0
13	0x00000000	0.0
14	0x00000000	0.0
15	0x00000000	0.0
16	0x00000000	0.0
17	0x00000000	0.0
18	0x00000000	0.0
19	0x00000000	0.0
20	0x00000000	0.0
21	0x00000000	0.0
22	0x00000000	0.0
23	0x00000000	0.0
24	0x00000000	0.0
25	0x00000000	0.0
26	0x00000000	0.0
27	0x00000000	0.0
28	0x00000000	0.0
29	0x00000000	0.0
30	0x00000000	0.0
31	0x00000000	0.0

weight f4 [32, 32]
0	0x3cacca20	0.021092474
1	0x3ddf7c1d	0.109123446
2	0xbf015660	-0.5052242
3	0xbddff2c9	-0.109349795
4	0xbd8ff764	-0.07029608
5	0xbe34fd3a	-0.17674723
6	0x3d2520a5	0.040314335
7	0x3e6d106c	0.23150796
8	0xbdfc3102	-0.12314035
9	0xbede6bae	-0.43441528
10	0xbe37fae7	-0.17966805
11	0x3e27aac8	0.16373742
12	0xbe9d909a	-0.30774385
13	0x3e01f7d0	0.12692189
14	0xbe451d3a	-0.1924943
15	0x3ee44db9	0.44590548
16	0xbddb01e6	-0.106937215
17	0x3ec2b88b	0.3803142
18	0x3ec4e737	0.38457653
19	0xbd65f640	-0.056143045
20	0x3e906cce	0.2820801
21	0x3e08eddd	0.13371988
22	0x3d3a29ee	0.045450144
23	0xbdddc0ff	-0.10827827
24	0x3d88032d	0.06641231
25	0xbe55f518	-0.20894277
26	0x3e7e7f6c	0.24853295
27	0xbe2729ce	-0.16324541
28	0x3e0a92b0	0.1353252
29	0x3e1452e2	0.14484742
30	0xbf24d486	-0.64386785
31	0xbdd36150	-0.10321295
32	0xbf0a7cbe	-0.5409659
33	0xbf019f15	-0.50633365
34	0x3d3c440a	0.045963325
35	0x3e74265b	0.23842756
36	0xbe8cfb86	-0.27535647
37	0xbe870542	-0.263712
38	0x3d3f6b79	0.046733353
39	0xbec19816	-0.37811345
40	0x3e23bddb	0.15990393
41	0x3e4c2d28	0.199391
42	0xbd5a12eb	-0.053240698
43	0x3e8b5170	0.2721057
44	0xbdd559ec	-0.10417542
45	0x3bda9ae2	0.0066712955
46	0xbe484108	-0.19556057
47	0xbe206d99	-0.15666808
48	0x3e660072	0.22461107
49	0x3cee809d	0.029114062
50	0xbd5e4906	-0.05426886
51	0x3e2cefda	0.16888371
52	0x3e924f5a	0.28576165
53	0x3ecdcbec	0.40194643
54	0x3e8f9116	0.2804038
55	0xbdac934a	-0.08426531
56	0xbeb2cbb9	-0.34921053
57	0x3dd08ab0	0.101827025
58	0x3cc445a7	0.023958994
59	0x3e32b294	0.17450935
60	0x3cfa9bf2	0.030591939
61	0xbee26cb5	-0.44223562
62	0xbea713dc	-0.3263234
63	0x3db21a74	0.08696452
64	0xbda0cd60	-0.07851672
65	0xbebf05b4	-0.3730904
66	0xbcb45c1f	-0.022016583
67	0x3b8f038b	0.004364436
68	0xbdaaadb3	-0.08333912
69	0x3e9ce8b5	0.3064629
70	0xbe398972	-0.18118837
71	0x3eabc4d9	0.3354862
72	0x3e04ed81	0.12981226
73	0xbe0557c1	-0.13021757
74	0xbe0934e0	-0.13399076
75	0xbe9e5ea5	-0.30931583
76	0x3ccf2bac	0.025289379
77	0xbd3e8918	-0.04651746
78	0xbd597a46	-0.053095125
79	0x3df9546f	0.121743076
80	0xbf1b2320	-0.6060047
81	0x3e80bc95	0.25143877
82	0xbf0e0f57	-0.55492157
83	0xbde6edab	-0.112758
84	0x3e6b01c5	0.22949894
85	0x3f1bd903	0.6087801
86	0xbd2ceff1	-0.042221013
87	0x3e4d56c5	0.20052631
88	0xbc7fc0b2	-0.015609907
89	0xbd34db15	-0.044154245
90	0x3e7f95d5	0.249595
91	0x3de5370c	0.1119214
92	0x3da9b792	0.082869664
93	0x3dfff11e	0.12497161
94	0x3e99ac7f	0.30014417
95	0x3e3ce42e	0.18446419
96	0xbe69262e	-0.2276847
97	0xbef4450c	-0.4770893
98	0x3ea0bc7d	0.31393805
99	0x3e679590	0.22615647
100	0x3e966db9	0.29380587
101	0xbd0c14f4	-0.03419967
102	0x3dda2c4b	0.106529795
103	0x3e7d0b1e	0.24711272
104	0xbdcb1160	-0.099154234
105	0xbe2e1500	-0.17000198
106	0x3db0f11f	0.0863974
107	0xbe57de69	-0.21080936
108	0x3e8810d5	0.26575342
109	0x3e38123c	0.17975706
110	0x3e1ee6c3	0.15517716
111	0xbea84ac2	-0.32869536
112	0xbe7def12	-0.2479823
113	0x3eb45a48	0.3522513
114	0x3dc18e02	0.09450914
115	0xbddab19f	-0.1067841
116	0xbe1e590e	-0.15463659
117	0xbe6a76bb	-0.22896855
118	0x3ee3abef	0.44467112
119	0xba379b7f	-0.0007004067
120	0x3de186b7	0.11012023
121	0xbe05fafd	-0.13084026
122	0xbf09214b	-0.53566426
123	0xbd53932e	-0.051654033
124	0x3d1f5bce	0.03890591
125	0x3e9e1580	0.30875778
126	0xbedb8bd3	-0.42880115
127	0xbd9a8570	-0.075449824
128	0xbd393b90	-0.04522282
129	0xbe570b10	-0.21000314
130	0x3f0c0e61	0.5470944
131	0xbece9a1a	-0.40351945
132	0xbbe02776	-0.0068406416
133	0x3e887168	0.26649022
134	0xbdd9b871	-0.106308825
135	0xbdb42f24	-0.08798054
136	0x3ea51e95	0.32249895
137	0x3defa736	0.11701815
138	0x3e697ccc	0.22801512
139	0xbd5508c8	-0.052010328
140	0xbd4ccc29	-0.04999939
141	0x3e21cfbe	0.15801904
142	0xbe71a0bf	-0.23596476
143	0x3f3852d9	0.72001415
144	0x3dcede38	0.101009786
145	0x3e404f0a	0.18780151
146	0x3e8f87fc	0.28033435
147	0x3e9e47aa	0.3091405
148	0x3d1df792	0.03856618
149	0x3d830e9f	0.06399273
150	0x3e5d4e4d	0.216119
151	0xbe2e5e93	-0.17028265
152	0xbda5ca1d	-0.08095191
153	0xbd956399	-0.07294387
154	0xbe01c7e2	-0.12673905
155	0xbe3251c7	-0.17414008
156	0xbe6ae313	-0.22938184
157	0x3de66907	0.11250501
158	0x3e822db6	0.254255
159	0xbebe93c1	-0.37222102
160	0xbe148c4a	-0.14506641
161	0xbe2d336c	-0.16914147
162	0xbd9673ce	-0.07346307
163	0xbd852a2b	-0.065021835
164	0xbd538e16	-0.051649176
165	0x3bd75683	0.0065715923
166	0x3da231ce	0.07919656
167	0xbd90a4dc	-0.070626944
168	0x3d6b7f9a	0.057494737
169	0xbcdc754a	-0.026911397
170	0x3ef9cbc6	0.4878828
171	0xbedb468e	-0.42827266
172	0xbe1ada46	-0.15122327
173	0xbc6b2953	-0.014353114
174	0xbdf1f8e2	-0.11815049
175	0xbe4de14d	-0.20105477
176	0xbd11b6a1	-0.03557456
177	0xbeaaea77	-0.33382007
178	0x3f061b9b	0.5238587
179	0x3d4728e2	0.048622973
180	0x3e1b6bf0	0.15177894
181	0x3dbe1a8d	0.09282408
182	0x3e705c5c	0.23472732
183	0x3dd858ed	0.10563836
184	0x3edd1f18	0.43187785
185	0x3e8862b2	0.266378
186	0x3e9bd596	0.3043639
187	0xbeff0d69	-0.4981492
188	0x3e008f8c	0.12554759
189	0x3d9bf730	0.07615507
190	0x3dd7306f	0.10507285
191	0x3f0d81d9	0.55276257
192	0xbd47f17d	-0.048814286
193	0xbe3f6a61	-0.18692924
194	0x3d53fb38	0.051753253
195	0x3e1691a4	0.14703995
196	0x3e760c16	0.24028048
197	0x3c74e5dd	0.014947382
198	0x3d43e054	0.047821358
199	0xbea36682	-0.31914145
200	0xbd83ccff	-0.06435584
201	0xbe4d9990	-0.2007811
202	0xbf08ef5b	-0.5349023
203	0xbe4a0d5b	-0.19731657
204	0x3eaabb9f	0.3334627
205	0xbeb4a62e	-0.35283035
206	0xbed3b2a0	-0.41347218
207	0x3eb8d4ab	0.36099753
208	0xbde7b3bc	-0.113135785
209	0xbec00225	-0.37501636
210	0x3d9805a6	0.07422952
211	0x3ec1430d	0.37746468
212	0xbea1e741	-0.31621745
213	0xbe193e8c	-0.14965266
214	0xbd3a510f	-0.04548746
215	0x3e8fb082	0.28064352
216	0x3d695753	0.056968044
217	0xbd59543b	-0.053058844
218	0x3e3ce50c	0.1844675
219	0x3e4eff57	0.20214592
220	0xbe9e8629	-0.3096173
221	0x3e3b7d0b	0.18309419
222	0xbe91f1a5	-0.28504673
223	0x3e8adf75	0.2712361
224	0xbe843e14	-0.25828612
225	0x3e3addc0	0.18248653
226	0x3e376f08	0.17913449
227	0xbde276fb	-0.1105785
228	0x3e99f785	0.30071655
229	0x3d817a1e	0.0632212
230	0xbe5e8b8a	-0.21732917
231	0x3eb0a36c	0.3449968
232	0xbdfa3493	-0.12217059
233	0xbeae5b83	-0.34054193
234	0x3ea27c15	0.31735292
235	0xbe484efc	-0.1956138
236	0x3e6f6b87	0.23380862
237	0xbd9bbd64	-0.07604483
238	0xbe2bc19a	-0.16773072
239	0xbe44b2f5	-0.19208892
240	0x3e030c43	0.12797646
241	0xbe260e2e	-0.16216347
242	0xbdfcce39	-0.12344021
243	0xbaf03bc4	-0.0018328358
244	0xbed13eee	-0.40868324
245	0x3dd497c4	0.103805095
246	0x3daae6e4	0.0834482
247	0xbe15f266	-0.14643249
248	0xbeeb26b2	-0.4592796
249	0xbe1ce9de	-0.15323588
250	0x3f15f29c	0.5857332
251	0xbe78b18d	-0.2428648
252	0x3d868112	0.06567587
253	0xbed3fb9f	-0.4140291
254	0xbe46797c	-0.1938228
255	0xbe95e949	-0.29279545

bias f4 [32]
0	0x00000000	0.0
1	0x00000000	0.0
2	0x00000000	0.0
3	0x00000000	0.0
4	0x00000000	0.0
5	0x00000000	0.0
6	0x00000000	0.0
7	0x00000000	0.0
8	0x00000000	0.0
9	0x00000000	0.0
10	0x00000000	0.0
11	0x00000000	0.0
12	0x00000000	0.0
13	0x00000000	0.0
14	0x00000000	0.0
15	0x00000000	0.0
16	0x00000000	0.0
17	0x00000000	0.0
18	0x00000000	0.0
19	0x00000000	0.0
20	0x00000000	0.0
21	0x00000000	0.0
22	0x00000000	0.0
23	0x00000000	0.0
24	0x00000000	0.0
25	0x00000000	0.0
26	0x00000000	0.0
27	0x00000000	0.0
28	0x00000000	0.0
29	0x00000000	0.0
30	0x00000000	0.0
31	0x00000000	0.0

weight f4 [2, 32]
0	0x3b7020e0	0.0036640689
1	0xbea759bd	-0.32685652
2	0x3e1333c7	0.1437522
3	0x3da2e27d	0.079533555
4	0x3bf57c2e	0.00749161
5	0x3d734db2	0.059400268
6	0x3ca1fedb	0.019774845
7	0xbd923065	-0.07138137
8	0xbe3033ea	-0.17207304
9	0xbdd8142e	-0.10550724
10	0x3dc14872	0.09437646
11	0xbd92acfa	-0.07161899
12	0xbc7b019c	-0.015320208
13	0xbde64e4a	-0.11245401
14	0xbde37c6f	-0.11107718
15	0x3d151f0c	0.03640656
16	0xbdf1bbe6	-0.11803417
17	0x3c0d3bf3	0.00862025
18	0x3dead2ec	0.114660114
19	0x3ea0f5a5	0.31437412
20	0xbe03f03b	-0.1288461
21	0xbdad7919	-0.08470363
22	0xbe06f58c	-0.13179606
23	0xbdbd48a7	-0.09242373
24	0xbdc95a14	-0.09831634
25	0x3d83e6d5	0.06440512
26	0x3dd7f14d	0.10544071
27	0xbd9e9bc0	-0.07744551
28	0x3e219bfe	0.15782163
29	0x3e6052b1	0.21906544
30	0x3d9cc81e	0.07655357
31	0x3c0cd285	0.008595114
32	0xbea55e83	-0.3229867
33	0xbd3c217b	-0.045930367
34	0x3d85ddf3	0.06536474
35	0xbdb390b7	-0.087678365
36	0x3db6f7fa	0.089340165
37	0x3e0966b9	0.13418092
38	0xbe4719f7	-0.19443499
39	0xbd90ea43	-0.07075932
40	0x3cb661d1	0.02226344
41	0xbd16ecf2	-0.036847062
42	0xbe0d8139	-0.13818826
43	0xbe1ab324	-0.15107399
44	0xbe86cb3d	-0.26326934
45	0x3dd927c8	0.10603291
46	0xbdad528d	-0.08463011
47	0xbde2f766	-0.11082344
48	0x3dc34f45	0.09536604
49	0x3e068847	0.13137923
50	0xbe0e49d4	-0.1389535
51	0x3c223017	0.009899161
52	0x3d2e1ef7	0.04251
53	0x3dfa7b25	0.12230519
54	0xbdf3e57c	-0.11909005
55	0x3e24cd92	0.16094044
56	0xbe18c90d	-0.14920445
57	0xbe1a11c8	-0.15045846
58	0xbdad705b	-0.08468696
59	0xbe0c7685	-0.13717087
60	0x3d39ff50	0.0454095
61	0xbd877b5b	-0.06615325
62	0x3dd5cd80	0.10439587
63	0x3e10af1e	0.14129302

bias f4 [2]
0	0xb960da29	-0.00021443576
1	0x3d0fc2d7	0.035097923

weight f4 [1, 32]
0	0x3df05aa0	0.11736035
1	0xbd844efe	-0.06460379
2	0xbdaf3e7e	-0.08556841
3	0x3d8bb302	0.068212524
4	0xbeadfd3b	-0.33982262
5	0xbeb9107b	-0.36145386
6	0xbea0a1f9	-0.31373575
7	0x3e1cc37f	0.15308951
8	0xbe997caf	-0.2997794
9	0xbe5b2bc7	-0.21403418
10	0xbb4be597	-0.0031112188
11	0x3d9b5a9b	0.07585641
12	0x3df1d27e	0.11807726
13	0x3d01fcaa	0.0317351
14	0x3e046b7d	0.12931629
15	0xbd40f538	-0.04710886
16	0x3da26d78	0.07931036
17	0xbd989f68	-0.07452279
18	0xbd7763a7	-0.06039777
19	0x3e63b3d6	0.2223657
20	0xbcca56b2	-0.024699543
21	0xbe32e1d1	-0.17468955
22	0xbea34ad5	-0.3189303
23	0xbd56d8c4	-0.052452818
24	0xbe01cf7b	-0.12676804
25	0x3df347c8	0.118789256
26	0xbad48a61	-0.0016215557
27	0xbec6f0d8	-0.38855624
28	0x3d8ad8f3	0.06779661
29	0x3cc53b5c	0.024076156
30	0xbe3ec8b3	-0.18631248
31	0x3d933e7e	0.07189654

loc f4 [128, 2]
0	0xbd64a3fb	-0.055820446
1	0x3f80e9f7	1.00714
2	0xbf6e7b71	-0.93157107
3	0xbf25c4a2	-0.6475316
4	0xbfa0fa6a	-1.257642
5	0x3f93154d	1.1490875
6	0x3fcce2c7	1.6006707
7	0xbfba14e4	-1.4537625
8	0x3f9e1e6b	1.2353033
9	0xbf0865f0	-0.53280544
10	0xbfc067e1	-1.5031701
11	0xbf43a556	-0.7642416
12	0x3f802917	1.001254
13	0x3fc45056	1.5337017
14	0xbfbacb01	-1.4593202
15	0xbe4e3730	-0.2013824
16	0xbec23c45	-0.37936607
17	0xbfa0600e	-1.2529314
18	0xbfaca50b	-1.3487867
19	0xbed2943f	-0.41128728
20	0x3f935db0	1.1512966
21	0x3e90f7bb	0.28314003
22	0x3fafa460	1.3722038
23	0x3fc98e1a	1.5746491
24	0x3fca1a04	1.5789189
25	0x3f8e0b29	1.1097156
26	0xbe99321a	-0.29921037
27	0x3f27f768	0.65611887
28	0x3e31a4e4	0.17348057
29	0x3fba7244	1.4566121
30	0x3fbbf126	1.4682968
31	0xbf251600	-0.64486694
32	0xbf96f3f9	-1.1793205
33	0x3f054a20	0.5206623
34	0xbfbbc4f1	-1.4669477
35	0x3f693a9c	0.91105056
36	0xbfb8daa1	-1.444172
37	0xbf6be178	-0.92140913
38	0xbfa45d29	-1.284093
39	0x3fbbee49	1.4682094
40	0x3f7c8c45	0.98651534
41	0x3fc67ffa	1.5507805
42	0x3e774f4f	0.24151348
43	0xbf8ef6a4	-1.1169019
44	0x3f375a19	0.71621853
45	0x3fb5cd85	1.4203345
46	0x3e808c5f	0.25107095
47	0xbf9fe076	-1.2490375
48	0x3fd3855e	1.6525075
49	0xbf67e2de	-0.90580547
50	0xbf869783	-1.0514988
51	0x3f9edc38	1.2410955
52	0x3fd2dafb	1.6473078
53	0x3d1dbff0	0.038513124
54	0x3fcdfa59	1.6092025
55	0xbfa95cd4	-1.3231454
56	0x3fce9e09	1.6141979
57	0xbf5ece56	-0.87033594
58	0x3f7cd105	0.9875644
59	0xbe954d5e	-0.2916059
60	0xbfa98dfd	-1.3246456
61	0xbc929d00	-0.017897129
62	0xbf7c1f4b	-0.9848525
63	0x3fae6796	1.3625362
64	0x3ec14b9b	0.37752995
65	0xbf07448a	-0.5283896
66	0x3ed1d308	0.40981317
67	0xbf799400	-0.97491455
68	0x3f1449af	0.5792493
69	0x3f9546e1	1.1662256
70	0xbf7d61b8	-0.9897723
71	0xbe7efa9e	-0.2490029
72	0xbf9128e0	-1.1340599
73	0xbe8dfec4	-0.27733433
74	0x3f1958ff	0.5990142
75	0x3f765d86	0.96236455
76	0xbfcf99a6	-1.6218765
77	0x3e2064a0	0.15663385
78	0x3f4b46b7	0.7940478
79	0x3f25d2de	0.6477488
80	0x3f083769	0.5320955
81	0x3f1b7e26	0.6073936
82	0xbfb45e7d	-1.4091336
83	0x3fac0772	1.3439772
84	0x3f41329f	0.75467867
85	0x3e11a9ed	0.14224978
86	0x3f6c9929	0.92421204
87	0xbf802e04	-1.0014043
88	0x3f9ac5aa	1.2091572
89	0x3f7857ea	0.97009146
90	0x3fa4c00b	1.2871107
91	0x3eccf2af	0.40028903
92	0xbf5674bd	-0.8377188
93	0xbf3c5690	-0.73569584
94	0xbf36edc8	-0.71456575
95	0xbe18ae7c	-0.1491031
96	0xbf39776e	-0.7244786
97	0xbf99224b	-1.196359
98	0xbf152f02	-0.58274853
99	0x3fd20204	1.6406865
100	0xbeae4cb8	-0.34042907
101	0xbf5e74c6	-0.8689693
102	0xbfa33991	-1.2751943
103	0x3f6d886a	0.92786276
104	0x3f0865d7	0.53280395
105	0xbfc5d000	-1.5454102
106	0xbf7f345a	-0.9968926
107	0x3ebd7b8d	0.37008324
108	0xbf2e36c3	-0.6805231
109	0xbfa04b71	-1.2523023
110	0x3e5fd3ab	0.21858089
111	0xbfaf4544	-1.3693013
112	0xbf666dff	-0.9001159
113	0x3cea5fb0	0.02861008
114	0x3e2f406b	0.17114417
115	0x3f92daee	1.1473062
116	0x3df885a3	0.12134864
117	0x3fa5452c	1.2911735
118	0x3ecf6622	0.4050761
119	0xbf7b12a2	-0.98075306
120	0x3f6cfb05	0.92570525
121	0xbf22371a	-0.6336533
122	0xbf8620a1	-1.0478708
123	0x3c93f470	0.018060893
124	0xbd7f11f1	-0.06227297
125	0x3ee55e61	0.44798568
126	0x3f83edae	1.0306909
127	0xbf9078f6	-1.1286914
128	0xbf614acf	-0.88004774
129	0x3eed753c	0.46378505
130	0xbead9eba	-0.3391016
131	0x3f9e005a	1.2343857
132	0x3f13ad6f	0.57686514
133	0x3f60e190	0.8784418
134	0xbd9025cf	-0.070384614
135	0x3f80619a	1.0029786
136	0x3fb88a33	1.4417175
137	0x3e3f4d42	0.18681815
138	0xbfa2e5ff	-1.2726439
139	0xbd5e4a40	-0.05427003
140	0x3f13dc9b	0.5775849
141	0xbfa6253c	-1.2980113
142	0x3f974ec3	1.1820911
143	0x3fce629e	1.6123846
144	0xbd49b197	-0.04924163
145	0xbfb026b6	-1.3761814
146	0x3ba7278a	0.005101149
147	0xbf2525a4	-0.6451056
148	0x3fce14bf	1.6100081
149	0x3fa31270	1.2740002
150	0xbe7c832b	-0.24659412
151	0x3f4e7a48	0.80655336
152	0xbf3638b0	-0.7118025
153	0x3f7c0426	0.9844383
154	0x3e2150bb	0.15753452
155	0x3f1cf0f2	0.61305153
156	0x3def13e3	0.11673715
157	0x3f48c0b2	0.7841903
158	0xbef1dce2	-0.47238833
159	0xbfd880b2	-1.6914275
160	0x3f11771c	0.5682237
161	0x3fa61958	1.2976484
162	0x3f0bf178	0.5466533
163	0x3f940c6c	1.1566291
164	0x3f6d01f9	0.92581135
165	0x3e41b238	0.18915641
166	0xbf2d600d	-0.67724687
167	0x3fa1b536	1.2633426
168	0xbf28c35d	-0.659231
169	0xbfddf903	-1.7341617
170	0xbfa24269	-1.2676517
171	0xbe34c936	-0.17654881
172	0xbeafb16b	-0.34315047
173	0xbfb8b76c	-1.4430976
174	0x3fc19955	1.5124918
175	0xbf8c6670	-1.0968761
176	0x3e801665	0.25017086
177	0x3f300d4e	0.687703
178	0xbea23405	-0.31680313
179	0xbf87e199	-1.0615722
180	0x3fafd7ad	1.3737694
181	0xbe22cd5b	-0.1589865
182	0x3e61c296	0.22046885
183	0xbd7f59ac	-0.062341377
184	0x3f8a1495	1.0787531
185	0x3dafdf06	0.0858746
186	0x3fa81188	1.313035
187	0xbe3d2869	-0.18472447
188	0xbfa05cb3	-1.252829
189	0x3f936418	1.1514921
190	0xbfd5c19b	-1.6699709
191	0xbfa3057d	-1.273605
192	0xbfa54a25	-1.2913252
193	0xbe7ca02a	-0.24670473
194	0x3f9d61dd	1.229549
195	0x3f093ecc	0.53611445
196	0xbf2c66d2	-0.6734439
197	0xbff39e5e	-1.9032705
198	0x3f824dd8	1.0180006
199	0x3fd0110c	1.6255202
200	0xbfbe3fc7	-1.4863213
201	0xbeb80ba6	-0.35946387
202	0xbf86a350	-1.0518589
203	0x3ef0a4f7	0.47000858
204	0x3fcbad6d	1.59123
205	0x3f5b1926	0.8558525
206	0x3fb39f59	1.4033004
207	0xbe85c228	-0.26124692
208	0xbfa211bd	-1.2661663
209	0x3fb0bc01	1.3807374
210	0xbdf9448d	-0.12171278
211	0x3f25be5a	0.6474358
212	0x3fa7874f	1.3088168
213	0xbfab360b	-1.3375868
214	0xbe228e5c	-0.15874618
215	0xbf148220	-0.58011055
216	0xbfab41ea	-1.337949
217	0x3ed3cd8c	0.41367757
218	0xbfa9c603	-1.3263553
219	0x3e62acf6	0.22136292
220	0xbf54b777	-0.83092445
221	0xbf5c2a0c	-0.8600166
222	0x3eefe406	0.46853656
223	0xbf5be6c0	-0.8589897
224	0x3f16c81b	0.58899087
225	0x3e770f4c	0.24126929
226	0xbf80d502	-1.0065005
227	0x3fd079f6	1.628722
228	0x3f3ebbc5	0.74505264
229	0xbef7a8ef	-0.48371074
230	0xbd2a16b3	-0.041525554
231	0xbfc3c51a	-1.5294526
232	0xbe00ae66	-0.12566528
233	0x3fcab4a8	1.5836382
234	0xbf700851	-0.9376269
235	0xbfd3916f	-1.6528758
236	0x3f9834e2	1.1891139
237	0x3f947d08	1.1600657
238	0x3fbc2c9b	1.4701113
239	0xbf44cec0	-0.76877975
240	0xbf9ee9cd	-1.24151
241	0x3f09d728	0.5384393
242	0x3f801aeb	1.0008215
243	0xbebff3e3	-0.37490758
244	0xbe8e50e0	-0.27796078
245	0x3f8dcfae	1.1079004
246	0xbf07c2ad	-0.53031427
247	0x3f8799bc	1.0593791
248	0x3e66d763	0.22543101
249	0x3fbd64ca	1.4796383
250	0x3fba3763	1.4548153
251	0xbfb35996	-1.4011714
252	0x3f1d70d4	0.6150029
253	0xbfd0522c	-1.6275077
254	0xbdd38022	-0.10327174
255	0xbf9a7d55	-1.2069498
